firmware/models/species_detection/predator/predator_classifier.tflite (tflite, 36312 bytes, 9 tensors)

tfl.pseudo_qconst1 i1 [7, 32]
0	0x73	115
1	0xb6	-74
2	0x02	2
3	0xe9	-23
4	0x9d	-99
5	0x0a	10
6	0xc1	-63
7	0xc5	-59
8	0x1e	30
9	0x17	23
10	0x38	56
11	0x74	116
12	0xad	-83
13	0x7b	123
14	0x88	-120
15	0x5f	95
16	0x09	9
17	0x1e	30
18	0x13	19
19	0xec	-20
20	0xb7	-73
21	0xbf	-65
22	0xad	-83
23	0xb4	-76
24	0xed	-19
25	0x7f	127
26	0x54	84
27	0xc0	-64
28	0x71	113
29	0xdb	-37
30	0x6a	106
31	0xe1	-31
32	0x6c	108
33	0x5c	92
34	0x61	97
35	0x62	98
36	0xc5	-59
37	0xf7	-9
38	0xae	-82
39	0x5f	95
40	0xd6	-42
41	0x86	-122
42	0x93	-109
43	0x28	40
44	0x32	50
45	0x9c	-100
46	0x18	24
47	0xed	-19
48	0x21	33
49	0xea	-22
50	0x1f	31
51	0x5a	90
52	0xe3	-29
53	0x82	-126
54	0x96	-106
55	0x68	104
56	0x63	99
57	0x9b	-101
58	0x81	-127
59	0x43	67
60	0x9d	-99
61	0x1f	31
62	0x8f	-113
63	0xac	-84
64	0xa1	-95
65	0x52	82
66	0xb0	-80
67	0xa1	-95
68	0xe7	-25
69	0xf5	-11
70	0x4c	76
71	0x03	3
72	0x72	114
73	0x36	54
74	0x81	-127
75	0x56	86
76	0xfb	-5
77	0x11	17
78	0x98	-104
79	0x79	121
80	0x98	-104
81	0x68	104
82	0xbb	-69
83	0x55	85
84	0x43	67
85	0xfc	-4
86	0x2f	47
87	0x57	87
88	0x79	121
89	0x4a	74
90	0x43	67
91	0x32	50
92	0xe6	-26
93	0xc1	-63
94	0x16	22
95	0x13	19
96	0x04	4
97	0xfa	-6
98	0x8f	-113
99	0xf5	-11
100	0x9e	-98
101	0xb1	-79
102	0x41	65
103	0xc4	-60
104	0xa1	-95
105	0xe8	-24
106	0x86	-122
107	0x14	20
108	0x7d	125
109	0x3e	62
110	0xaa	-86
111	0x02	2
112	0x20	32
113	0xbe	-66
114	0x50	80
115	0x6d	109
116	0xc4	-60
117	0xad	-83
118	0x7f	127
119	0x79	121
120	0x7b	123
121	0x8b	-117
122	0x67	103
123	0x5f	95
124	0xbf	-65
125	0x53	83
126	0xb6	-74
127	0xe0	-32
128	0xe5	-27
129	0xc2	-62
130	0x3d	61
131	0xe2	-30
132	0xb5	-75
133	0x77	119
134	0xf4	-12
135	0xc5	-59
136	0x84	-124
137	0xed	-19
138	0x12	18
139	0x14	20
140	0x69	105
141	0x81	-127
142	0xa9	-87
143	0x1e	30
144	0x65	101
145	0xaf	-81
146	0x98	-104
147	0x0a	10
148	0x71	113
149	0xdb	-37
150	0x42	66
151	0x0d	13
152	0x3e	62
153	0x1c	28
154	0x03	3
155	0xe9	-23
156	0xcc	-52
157	0xd1	-47
158	0x6d	109
159	0xbc	-68
160	0x8c	-116
161	0x5c	92
162	0x0f	15
163	0x03	3
164	0x1d	29
165	0x16	22
166	0x05	5
167	0xe6	-26
168	0xa2	-94
169	0xd0	-48
170	0x6a	106
171	0x43	67
172	0x05	5
173	0x07	7
174	0x38	56
175	0x91	-111
176	0xea	-22
177	0x9f	-97
178	0xe0	-32
179	0x81	-127
180	0x5e	94
181	0x72	114
182	0x15	21
183	0x6d	109
184	0xda	-38
185	0x1d	29
186	0x84	-124
187	0x85	-123
188	0x23	35
189	0x78	120
190	0xe1	-31
191	0x2d	45
192	0x3b	59
193	0xfa	-6
194	0x03	3
195	0x53	83
196	0x6e	110
197	0xc3	-61
198	0xdf	-33
199	0x32	50
200	0x88	-120
201	0xbb	-69
202	0xd4	-44
203	0xa0	-96
204	0xda	-38
205	0xe6	-26
206	0x81	-127
207	0x07	7
208	0x93	-109
209	0x03	3
210	0x0e	14
211	0x8e	-114
212	0x1e	30
213	0x42	66
214	0xa2	-94
215	0xe8	-24
216	0x51	81
217	0x25	37
218	0x45	69
219	0x7b	123
220	0x6d	109
221	0xd1	-47
222	0xfe	-2
223	0xac	-84

tfl.pseudo_qconst3 i1 [32, 64]
0	0x33	51
1	0x64	100
2	0x9a	-102
3	0xe5	-27
4	0x0c	12
5	0xf6	-10
6	0x9e	-98
7	0xe1	-31
8	0xa9	-87
9	0x21	33
10	0xb8	-72
11	0x4d	77
12	0x5f	95
13	0x39	57
14	0xe7	-25
15	0x55	85
16	0xce	-50
17	0x9b	-101
18	0x22	34
19	0x28	40
20	0xb8	-72
21	0x38	56
22	0x50	80
23	0xf9	-7
24	0x03	3
25	0x18	24
26	0x54	84
27	0xea	-22
28	0x68	104
29	0x6f	111
30	0xf8	-8
31	0xdc	-36
32	0x32	50
33	0xb7	-73
34	0xa9	-87
35	0x45	69
36	0x61	97
37	0xa6	-90
38	0x5f	95
39	0xc7	-57
40	0x77	119
41	0xf5	-11
42	0x39	57
43	0x91	-111
44	0x7f	127
45	0xc4	-60
46	0xb3	-77
47	0xb1	-79
48	0x5a	90
49	0xae	-82
50	0xe1	-31
51	0x15	21
52	0xc2	-62
53	0x01	1
54	0x52	82
55	0xa7	-89
56	0xd2	-46
57	0x53	83
58	0x91	-111
59	0xec	-20
60	0x2c	44
61	0x22	34
62	0x0d	13
63	0xb3	-77
64	0xa2	-94
65	0x39	57
66	0xd7	-41
67	0x34	52
68	0xfe	-2
69	0xb8	-72
70	0xa1	-95
71	0x4e	78
72	0x81	-127
73	0x20	32
74	0x8e	-114
75	0x70	112
76	0xd8	-40
77	0x32	50
78	0x2b	43
79	0x6a	106
80	0x0f	15
81	0x23	35
82	0x63	99
83	0x56	86
84	0x63	99
85	0xb7	-73
86	0x66	102
87	0x9f	-97
88	0xad	-83
89	0xa8	-88
90	0x78	120
91	0xe4	-28
92	0xf7	-9
93	0xbb	-69
94	0xaf	-81
95	0x99	-103
96	0x95	-107
97	0x08	8
98	0x64	100
99	0xb3	-77
100	0xe3	-29
101	0x7c	124
102	0x1c	28
103	0x97	-105
104	0x4a	74
105	0x6c	108
106	0x01	1
107	0x9f	-97
108	0xa5	-91
109	0x3b	59
110	0x67	103
111	0x9b	-101
112	0xbd	-67
113	0xcf	-49
114	0xc4	-60
115	0x61	97
116	0x34	52
117	0x3a	58
118	0xbc	-68
119	0x64	100
120	0xd1	-47
121	0x5a	90
122	0x3e	62
123	0x33	51
124	0xd6	-42
125	0x8d	-115
126	0xf5	-11
127	0x8f	-113
128	0xf2	-14
129	0xf9	-7
130	0x4e	78
131	0x53	83
132	0x72	114
133	0x1d	29
134	0xdd	-35
135	0x21	33
136	0xf4	-12
137	0x3a	58
138	0xb8	-72
139	0x4e	78
140	0x6b	107
141	0xe7	-25
142	0x9b	-101
143	0x14	20
144	0xa1	-95
145	0xf6	-10
146	0xa3	-93
147	0xc9	-55
148	0x97	-105
149	0x86	-122
150	0x04	4
151	0xb3	-77
152	0x8e	-114
153	0x90	-112
154	0x3e	62
155	0xa1	-95
156	0x4b	75
157	0xeb	-21
158	0x6f	111
159	0xb1	-79
160	0x45	69
161	0x50	80
162	0xfb	-5
163	0xda	-38
164	0x95	-107
165	0x60	96
166	0x1e	30
167	0xd4	-44
168	0x06	6
169	0x0b	11
170	0x17	23
171	0x45	69
172	0x54	84
173	0x10	16
174	0x33	51
175	0xbe	-66
176	0x5b	91
177	0x35	53
178	0x5f	95
179	0x2a	42
180	0x56	86
181	0xbb	-69
182	0x31	49
183	0x28	40
184	0x8b	-117
185	0x81	-127
186	0xfb	-5
187	0x01	1
188	0x36	54
189	0x8e	-114
190	0x8a	-118
191	0x12	18
192	0x92	-110
193	0xc7	-57
194	0xe3	-29
195	0xdb	-37
196	0xff	-1
197	0xa4	-92
198	0xb1	-79
199	0x37	55
200	0x50	80
201	0xbf	-65
202	0x7a	122
203	0x34	52
204	0x67	103
205	0xcd	-51
206	0xe7	-25
207	0xa8	-88
208	0x7e	126
209	0xb0	-80
210	0xe8	-24
211	0x1e	30
212	0xfb	-5
213	0x5c	92
214	0x6f	111
215	0x61	97
216	0x27	39
217	0xd7	-41
218	0x5d	93
219	0x48	72
220	0x08	8
221	0xff	-1
222	0xca	-54
223	0xab	-85
224	0xde	-34
225	0x1a	26
226	0x23	35
227	0x5e	94
228	0xcf	-49
229	0x7b	123
230	0x8d	-115
231	0xb6	-74
232	0x3b	59
233	0xfe	-2
234	0x96	-106
235	0xd2	-46
236	0x8f	-113
237	0x6e	110
238	0x37	55
239	0x11	17
240	0xd1	-47
241	0xab	-85
242	0xc0	-64
243	0x0c	12
244	0x7f	127
245	0x94	-108
246	0x0c	12
247	0x25	37
248	0x75	117
249	0xfc	-4
250	0x9b	-101
251	0xb9	-71
252	0xf8	-8
253	0xc2	-62
254	0xf4	-12
255	0x28	40

tfl.pseudo_qconst5 i1 [64, 3, 3, 32]
0	0x2e	46
1	0xb4	-76
2	0x9d	-99
3	0x06	6
4	0xb5	-75
5	0x1c	28
6	0x07	7
7	0xd2	-46
8	0x0d	13
9	0x60	96
10	0x83	-125
11	0x13	19
12	0x3c	60
13	0xcc	-52
14	0x30	48
15	0x0c	12
16	0xb0	-80
17	0x2d	45
18	0x31	49
19	0xb9	-71
20	0xc9	-55
21	0xb2	-78
22	0x5d	93
23	0xae	-82
24	0x3f	63
25	0xa8	-88
26	0x9d	-99
27	0x15	21
28	0x0f	15
29	0xdb	-37
30	0xb4	-76
31	0x32	50
32	0xd5	-43
33	0x1f	31
34	0x52	82
35	0xee	-18
36	0x5e	94
37	0xa5	-91
38	0x84	-124
39	0x8f	-113
40	0x5a	90
41	0xc9	-55
42	0x13	19
43	0x41	65
44	0x4a	74
45	0x8b	-117
46	0x62	98
47	0x1f	31
48	0x1e	30
49	0x9d	-99
50	0x17	23
51	0xe4	-28
52	0xc7	-57
53	0xfd	-3
54	0xc6	-58
55	0x0a	10
56	0xae	-82
57	0xeb	-21
58	0x2d	45
59	0x17	23
60	0xfb	-5
61	0x07	7
62	0xc2	-62
63	0x5d	93
64	0xc6	-58
65	0x82	-126
66	0xfc	-4
67	0xd1	-47
68	0x4f	79
69	0x39	57
70	0x10	16
71	0xd7	-41
72	0x4e	78
73	0x48	72
74	0x06	6
75	0x92	-110
76	0xaa	-86
77	0x1a	26
78	0x9e	-98
79	0xdb	-37
80	0x1a	26
81	0x98	-104
82	0xc5	-59
83	0x3b	59
84	0xeb	-21
85	0xe6	-26
86	0xd5	-43
87	0xdb	-37
88	0x1e	30
89	0x55	85
90	0x1b	27
91	0xd5	-43
92	0x60	96
93	0x46	70
94	0x5c	92
95	0xd2	-46
96	0x9c	-100
97	0xcd	-51
98	0xce	-50
99	0x9f	-97
100	0x8e	-114
101	0xec	-20
102	0x40	64
103	0x62	98
104	0x33	51
105	0x87	-121
106	0x0f	15
107	0x92	-110
108	0x32	50
109	0x3e	62
110	0xee	-18
111	0x85	-123
112	0xa2	-94
113	0xaa	-86
114	0xd5	-43
115	0xdb	-37
116	0xd6	-42
117	0xaa	-86
118	0xd9	-39
119	0xe7	-25
120	0x3f	63
121	0xb4	-76
122	0x8c	-116
123	0x49	73
124	0x02	2
125	0x31	49
126	0xac	-84
127	0xce	-50
128	0xc7	-57
129	0x53	83
130	0x64	100
131	0x9b	-101
132	0x2b	43
133	0x5d	93
134	0x05	5
135	0x8c	-116
136	0x5a	90
137	0x8b	-117
138	0x93	-109
139	0x5c	92
140	0x5d	93
141	0x4c	76
142	0xc3	-61
143	0x55	85
144	0x16	22
145	0x9f	-97
146	0x8e	-114
147	0x42	66
148	0xd5	-43
149	0xfb	-5
150	0xb7	-73
151	0xa7	-89
152	0xe8	-24
153	0x2d	45
154	0x4f	79
155	0x31	49
156	0x96	-106
157	0x1c	28
158	0xf3	-13
159	0x83	-125
160	0xee	-18
161	0x9e	-98
162	0x16	22
163	0xc7	-57
164	0x3d	61
165	0x49	73
166	0xa0	-96
167	0x59	89
168	0x59	89
169	0x49	73
170	0x9f	-97
171	0xcc	-52
172	0x65	101
173	0x36	54
174	0xaa	-86
175	0x30	48
176	0x87	-121
177	0x93	-109
178	0x3c	60
179	0x48	72
180	0xb3	-77
181	0x5e	94
182	0x8b	-117
183	0x4c	76
184	0xd7	-41
185	0x0d	13
186	0xfa	-6
187	0x57	87
188	0x00	0
189	0x4f	79
190	0x47	71
191	0xe2	-30
192	0x37	55
193	0x56	86
194	0x15	21
195	0x08	8
196	0x88	-120
197	0xe3	-29
198	0xbc	-68
199	0x81	-127
200	0xc5	-59
201	0x3f	63
202	0xe7	-25
203	0x5d	93
204	0x33	51
205	0xb7	-73
206	0xbf	-65
207	0x23	35
208	0x82	-126
209	0xdc	-36
210	0xc5	-59
211	0x25	37
212	0xbc	-68
213	0x61	97
214	0x64	100
215	0xbe	-66
216	0xd6	-42
217	0x84	-124
218	0x84	-124
219	0x65	101
220	0xae	-82
221	0xd9	-39
222	0xfd	-3
223	0x3d	61
224	0x86	-122
225	0x82	-126
226	0x1c	28
227	0x93	-109
228	0xcc	-52
229	0x39	57
230	0xf7	-9
231	0x3e	62
232	0xc0	-64
233	0xf9	-7
234	0x81	-127
235	0xce	-50
236	0xc4	-60
237	0x1e	30
238	0x1a	26
239	0x3b	59
240	0xad	-83
241	0x4f	79
242	0xde	-34
243	0xc1	-63
244	0x43	67
245	0x82	-126
246	0x37	55
247	0x4d	77
248	0xa7	-89
249	0x3e	62
250	0x20	32
251	0x40	64
252	0x21	33
253	0xc4	-60
254	0xc3	-61
255	0x0b	11

tfl.pseudo_qconst6 i1 [32] scale=0.0033509203 zero_point=127
0	0x30	-0.2647227
1	0x80	-0.8544847
2	0xd9	-0.5562528
3	0x2a	-0.28482822
4	0x6d	-0.060316566
5	0x73	-0.040211044
6	0x11	-0.36860123
7	0x76	-0.030158283
8	0xf0	-0.4791816
9	0x1f	-0.32168835
10	0x15	-0.35519755
11	0x86	-0.83437914
12	0x44	-0.1977043
13	0x72	-0.043561965
14	0xbb	-0.65678036
15	0xed	-0.48923436
16	0xf0	-0.4791816
17	0x2c	-0.2781264
18	0x36	-0.24461718
19	0xfa	-0.4456724
20	0x49	-0.18094969
21	0x32	-0.25802085
22	0x5f	-0.10722945
23	0x37	-0.24126627
24	0xbd	-0.65007854
25	0x76	-0.030158283
26	0x7a	-0.016754601
27	0x33	-0.25466993
28	0x73	-0.040211044
29	0xfd	-0.43561962
30	0x0d	-0.38200492
31	0x7b	-0.013403681

tfl.pseudo_qconst7 i1 [32] scale=0.0049877833 zero_point=-128
0	0x6a	1.1671413
1	0x58	1.0773612
2	0x61	1.1222513
3	0x67	1.1521779
4	0x79	1.241958
5	0x7b	1.2519336
6	0x63	1.1322268
7	0x7e	1.266897
8	0x5f	1.1122757
9	0x62	1.127239
10	0x64	1.1372145
11	0x53	1.0524223
12	0x70	1.197068
13	0x7c	1.2569214
14	0x5c	1.0973123
15	0x5b	1.0923245
16	0x60	1.1172634
17	0x66	1.1471901
18	0x67	1.1521779
19	0x60	1.1172634
20	0x6f	1.1920803
21	0x6c	1.1771169
22	0x75	1.2220069
23	0x69	1.1621535
24	0x57	1.0723734
25	0x7d	1.2619091
26	0x7f	1.2718847
27	0x69	1.1621535
28	0x7a	1.2469459
29	0x62	1.127239
30	0x64	1.1372145
31	0x7f	1.2718847

tfl.pseudo_qconst9 i1 [32, 3, 3, 16]
0	0xc6	-58
1	0x00	0
2	0x3c	60
3	0xa8	-88
4	0x40	64
5	0xa4	-92
6	0xec	-20
7	0x4d	77
8	0x60	96
9	0x71	113
10	0x29	41
11	0x04	4
12	0x2e	46
13	0x19	25
14	0x50	80
15	0xdb	-37
16	0x23	35
17	0xa5	-91
18	0x41	65
19	0x33	51
20	0xbf	-65
21	0xa6	-90
22	0x2e	46
23	0x10	16
24	0x5a	90
25	0x33	51
26	0xbf	-65
27	0x97	-105
28	0xe9	-23
29	0x11	17
30	0xfb	-5
31	0x02	2
32	0x90	-112
33	0x93	-109
34	0x99	-103
35	0xe2	-30
36	0x42	66
37	0xed	-19
38	0x0d	13
39	0xb7	-73
40	0x26	38
41	0x79	121
42	0x27	39
43	0x1b	27
44	0x2b	43
45	0xb8	-72
46	0x9b	-101
47	0xe2	-30
48	0x50	80
49	0xec	-20
50	0xff	-1
51	0x3b	59
52	0x92	-110
53	0xa8	-88
54	0xb5	-75
55	0x58	88
56	0xb0	-80
57	0x62	98
58	0x01	1
59	0x32	50
60	0xe3	-29
61	0x13	19
62	0x0b	11
63	0x62	98
64	0x9d	-99
65	0xa2	-94
66	0xb7	-73
67	0xff	-1
68	0xc3	-61
69	0xbf	-65
70	0xfd	-3
71	0x30	48
72	0x21	33
73	0xc0	-64
74	0xaa	-86
75	0x40	64
76	0xb4	-76
77	0xef	-17
78	0x4c	76
79	0x0f	15
80	0xee	-18
81	0x3e	62
82	0x31	49
83	0x7b	123
84	0x08	8
85	0x0c	12
86	0xe9	-23
87	0xfd	-3
88	0xbe	-66
89	0xf0	-16
90	0xdf	-33
91	0x72	114
92	0x0a	10
93	0x28	40
94	0x62	98
95	0x51	81
96	0x5e	94
97	0xf2	-14
98	0xfe	-2
99	0x01	1
100	0x0e	14
101	0xae	-82
102	0xe4	-28
103	0xc1	-63
104	0xc9	-55
105	0x02	2
106	0xde	-34
107	0x9c	-100
108	0x63	99
109	0x74	116
110	0x21	33
111	0xe8	-24
112	0x7f	127
113	0xfe	-2
114	0x93	-109
115	0x2b	43
116	0x23	35
117	0x92	-110
118	0xcd	-51
119	0x77	119
120	0x91	-111
121	0xaa	-86
122	0x72	114
123	0x4e	78
124	0x5d	93
125	0x0a	10
126	0x94	-108
127	0x9d	-99
128	0xfe	-2
129	0x40	64
130	0xf8	-8
131	0x76	118
132	0xaf	-81
133	0x2a	42
134	0xac	-84
135	0x20	32
136	0x90	-112
137	0x68	104
138	0xd8	-40
139	0xf0	-16
140	0xdc	-36
141	0x45	69
142	0x1c	28
143	0xcf	-49
144	0xb9	-71
145	0xef	-17
146	0x22	34
147	0x27	39
148	0xaf	-81
149	0x38	56
150	0x2c	44
151	0x5e	94
152	0xef	-17
153	0x6e	110
154	0xf7	-9
155	0x52	82
156	0x59	89
157	0x5c	92
158	0x07	7
159	0xe0	-32
160	0x61	97
161	0x6f	111
162	0xd0	-48
163	0xbc	-68
164	0xe8	-24
165	0x41	65
166	0xd2	-46
167	0x1f	31
168	0xc7	-57
169	0x2d	45
170	0xd6	-42
171	0x18	24
172	0xfa	-6
173	0x58	88
174	0x63	99
175	0x06	6
176	0xe0	-32
177	0x9b	-101
178	0x26	38
179	0x42	66
180	0x50	80
181	0x5a	90
182	0x0d	13
183	0x17	23
184	0xc7	-57
185	0xfa	-6
186	0xb6	-74
187	0x37	55
188	0x2a	42
189	0xc2	-62
190	0x26	38
191	0xc3	-61
192	0x40	64
193	0x66	102
194	0xb0	-80
195	0x76	118
196	0x3f	63
197	0x5a	90
198	0x16	22
199	0xe1	-31
200	0x65	101
201	0x1f	31
202	0x20	32
203	0xdd	-35
204	0xa4	-92
205	0x2b	43
206	0x9b	-101
207	0x35	53
208	0x25	37
209	0xd1	-47
210	0x1f	31
211	0xe8	-24
212	0x36	54
213	0x8e	-114
214	0xa5	-91
215	0x38	56
216	0xb5	-75
217	0x56	86
218	0x5a	90
219	0x88	-120
220	0x68	104
221	0x99	-103
222	0x17	23
223	0x0c	12
224	0x69	105
225	0x6f	111
226	0x49	73
227	0x76	118
228	0x29	41
229	0x04	4
230	0x37	55
231	0x04	4
232	0x46	70
233	0x5a	90
234	0x00	0
235	0xe8	-24
236	0xcf	-49
237	0xc1	-63
238	0x6b	107
239	0xe0	-32
240	0x35	53
241	0x78	120
242	0x60	96
243	0xd1	-47
244	0xf4	-12
245	0x67	103
246	0x9a	-102
247	0xf2	-14
248	0x6f	111
249	0x91	-111
250	0x07	7
251	0x2c	44
252	0x28	40
253	0xe5	-27
254	0x57	87
255	0xaf	-81

tfl.pseudo_qconst10 i1 [16] scale=0.0012170998 zero_point=124
0	0x6d	-0.018256497
1	0x79	-0.0036512995
2	0xfc	-0.15578878
3	0x52	-0.051118195
4	0x7f	0.0036512995
5	0x74	-0.009736799
6	0x16	-0.12414418
7	0x61	-0.032861695
8	0x75	-0.008519699
9	0x43	-0.06937469
10	0x5f	-0.035295896
11	0x77	-0.006085499
12	0x73	-0.010953899
13	0x80	-0.30670917
14	0xe7	-0.18134788
15	0x79	-0.0036512995

tfl.pseudo_qconst11 i1 [16] scale=0.0051065935 zero_point=-128
0	0x7e	1.2970748
1	0x7b	1.281755
2	0x7c	1.2868615
3	0x7a	1.2766484
4	0x7a	1.2766484
5	0x78	1.2664351
6	0x78	1.2664351
7	0x7b	1.281755
8	0x7a	1.2766484
9	0x7c	1.2868615
10	0x79	1.2715418
11	0x7f	1.3021814
12	0x7c	1.2868615
13	0x7a	1.2766484
14	0x7a	1.2766484
15	0x7b	1.281755

tfl.pseudo_qconst13 i1 [16, 3, 3, 3]
0	0xcc	-52
1	0x17	23
2	0x2f	47
3	0x51	81
4	0xf8	-8
5	0x73	115
6	0x99	-103
7	0xd7	-41
8	0xcb	-53
9	0x34	52
10	0xb7	-73
11	0xf1	-15
12	0x1c	28
13	0x81	-127
14	0xd6	-42
15	0xd0	-48
16	0xaf	-81
17	0x4d	77
18	0x57	87
19	0xbe	-66
20	0x1c	28
21	0x25	37
22	0x2b	43
23	0x3e	62
24	0xea	-22
25	0x89	-119
26	0x52	82
27	0x01	1
28	0xb5	-75
29	0x98	-104
30	0x2e	46
31	0xbc	-68
32	0x30	48
33	0xa0	-96
34	0x07	7
35	0x72	114
36	0x37	55
37	0x9d	-99
38	0xcf	-49
39	0x81	-127
40	0x78	120
41	0xa8	-88
42	0xb5	-75
43	0x67	103
44	0xc0	-64
45	0x44	68
46	0x8c	-116
47	0xd5	-43
48	0x66	102
49	0xed	-19
50	0x03	3
51	0xdb	-37
52	0x08	8
53	0xda	-38
54	0x7f	127
55	0xfd	-3
56	0xcd	-51
57	0x2d	45
58	0xf4	-12
59	0x4b	75
60	0x48	72
61	0xe4	-28
62	0x24	36
63	0x0d	13
64	0x45	69
65	0x01	1
66	0xc0	-64
67	0x5d	93
68	0xe2	-30
69	0x05	5
70	0xa4	-92
71	0xf5	-11
72	0x00	0
73	0x52	82
74	0x94	-108
75	0x6c	108
76	0x0e	14
77	0x37	55
78	0x11	17
79	0xdf	-33
80	0x3f	63
81	0x35	53
82	0x00	0
83	0x2f	47
84	0x2c	44
85	0xb6	-74
86	0x23	35
87	0x03	3
88	0xec	-20
89	0x7f	127
90	0xa7	-89
91	0x63	99
92	0x98	-104
93	0xce	-50
94	0x2a	42
95	0x46	70
96	0x69	105
97	0x9f	-97
98	0x13	19
99	0xbc	-68
100	0xfd	-3
101	0x58	88
102	0x8e	-114
103	0x59	89
104	0x1f	31
105	0x9f	-97
106	0x29	41
107	0xc1	-63
108	0x94	-108
109	0xb0	-80
110	0x81	-127
111	0xd9	-39
112	0x0a	10
113	0x0d	13
114	0x33	51
115	0xa8	-88
116	0x69	105
117	0xf8	-8
118	0x88	-120
119	0xcf	-49
120	0x8f	-113
121	0xc3	-61
122	0x1a	26
123	0x99	-103
124	0x20	32
125	0xdf	-33
126	0x5b	91
127	0xe8	-24
128	0x3e	62
129	0xa7	-89
130	0xab	-85
131	0x23	35
132	0xf9	-7
133	0xb8	-72
134	0x1e	30
135	0x85	-123
136	0xbc	-68
137	0x2c	44
138	0x25	37
139	0xca	-54
140	0xac	-84
141	0x06	6
142	0xd8	-40
143	0x72	114
144	0x7a	122
145	0x8b	-117
146	0x83	-125
147	0xda	-38
148	0x2d	45
149	0x4c	76
150	0x16	22
151	0xc6	-58
152	0x9e	-98
153	0x78	120
154	0x2c	44
155	0x12	18
156	0x40	64
157	0x03	3
158	0x81	-127
159	0xf2	-14
160	0xff	-1
161	0xaa	-86
162	0x4f	79
163	0x8a	-118
164	0x30	48
165	0x3d	61
166	0x8d	-115
167	0xc6	-58
168	0x10	16
169	0x64	100
170	0x9d	-99
171	0x9d	-99
172	0x38	56
173	0x65	101
174	0x81	-127
175	0xe3	-29
176	0xe3	-29
177	0x1b	27
178	0xd9	-39
179	0x4d	77
180	0x6f	111
181	0x64	100
182	0x6a	106
183	0x33	51
184	0xd0	-48
185	0x75	117
186	0xd9	-39
187	0x7f	127
188	0xf2	-14
189	0xbe	-66
190	0x6f	111
191	0x73	115
192	0x55	85
193	0xa5	-91
194	0x26	38
195	0xd1	-47
196	0xcb	-53
197	0x7f	127
198	0xb2	-78
199	0xf4	-12
200	0x8b	-117
201	0xc8	-56
202	0x89	-119
203	0xd6	-42
204	0x09	9
205	0xb3	-77
206	0x37	55
207	0x20	32
208	0x6d	109
209	0x6c	108
210	0x27	39
211	0xd2	-46
212	0x5a	90
213	0x27	39
214	0xd4	-44
215	0x8e	-114
216	0xc8	-56
217	0x9e	-98
218	0xad	-83
219	0x6f	111
220	0x04	4
221	0xe8	-24
222	0x00	0
223	0x67	103
224	0x4d	77
225	0x84	-124
226	0x99	-103
227	0xc6	-58
228	0x41	65
229	0x10	16
230	0x5c	92
231	0x91	-111
232	0x6a	106
233	0x84	-124
234	0xad	-83
235	0x6e	110
236	0x73	115
237	0xdb	-37
238	0x1c	28
239	0x95	-107
240	0x81	-127
241	0xd3	-45
242	0x31	49
243	0xcb	-53
244	0xeb	-21
245	0x7d	125
246	0x76	118
247	0xd3	-45
248	0x14	20
249	0xb7	-73
250	0x55	85
251	0xa3	-93
252	0x1e	30
253	0x0a	10
254	0x67	103
255	0xa9	-87
