firmware/models/test/wildlife_classifier_test_quantized.tflite (tflite, 34864 bytes, 5 tensors)

tfl.pseudo_qconst1 i1 [10, 32]
000000 3b ea 81 2b 56 f5 78 ea 24 93 76 30 fd 1b 66 45
       59 -22 -127 43 86 -11 120 -22 36 -109 118 48 -3 27 102 69
000010 d6 6b d2 30 18 db 69 64 a9 67 9e 00 a7 3d d9 d5
       -42 107 -46 48 24 -37 105 100 -87 103 -98 0 -89 61 -39 -43
000020 b3 05 eb 06 ac 7f b1 9c 25 9a f2 47 82 db 5a 90
       -77 5 -21 6 -84 127 -79 -100 37 -102 -14 71 -126 -37 90 -112
000030 73 f3 68 bf 2a b6 58 01 4e e9 08 ed 32 9a 56 9b
       115 -13 104 -65 42 -74 88 1 78 -23 8 -19 50 -102 86 -101
000040 c8 e5 e1 94 7c 56 00 d7 81 a2 39 18 30 05 b2 bd
       -56 -27 -31 -108 124 86 0 -41 -127 -94 57 24 48 5 -78 -67
000050 88 83 dc 7e 0c 88 f8 6d 4c 74 30 aa 22 66 b6 a0
       -120 -125 -36 126 12 -120 -8 109 76 116 48 -86 34 102 -74 -96
000060 62 de 3a 70 c3 9e 97 cc 6e 01 fa 9f 0f 7f 31 ef
       98 -34 58 112 -61 -98 -105 -52 110 1 -6 -97 15 127 49 -17
000070 05 33 35 62 7b 67 9d ef 9b 0f c5 eb 88 3e 79 bc
       5 51 53 98 123 103 -99 -17 -101 15 -59 -21 -120 62 121 -68
000080 c8 6f 22 b0 1f 06 35 10 5b 72 c7 73 7b e8 43 3a
       -56 111 34 -80 31 6 53 16 91 114 -57 115 123 -24 67 58
000090 34 40 8b 4c a1 f2 81 7d ee b4 3f 6e 3b 27 45 dd
       52 64 -117 76 -95 -14 -127 125 -18 -76 63 110 59 39 69 -35
0000a0 d6 c1 e2 3d d6 2a 27 60 81 01 5e 50 ca 28 30 b2
       -42 -63 -30 61 -42 42 39 96 -127 1 94 80 -54 40 48 -78
0000b0 a8 65 83 ea 88 5a de 90 db dd cf 39 94 f1 96 22
       -88 101 -125 -22 -120 90 -34 -112 -37 -35 -49 57 -108 -15 -106 34
0000c0 39 f0 62 bd c4 05 84 54 50 8b 27 1c 93 cc c2 24
       57 -16 98 -67 -60 5 -124 84 80 -117 39 28 -109 -52 -62 36
0000d0 2e ba d6 ed 21 68 e3 a8 ff 4a a1 b2 7f 65 e4 93
       46 -70 -42 -19 33 104 -29 -88 -1 74 -95 -78 127 101 -28 -109
0000e0 8a a1 4b a9 8c 6a 77 29 f6 1c 43 e7 21 72 a7 9d
       -118 -95 75 -87 -116 106 119 41 -10 28 67 -25 33 114 -89 -99
0000f0 3c 45 31 2c cd 90 dd cb 5d d6 70 ec ae 70 9e 7f
       60 69 49 44 -51 -112 -35 -53 93 -42 112 -20 -82 112 -98 127

tfl.pseudo_qconst3 i1 [32, 64]
000000 ff a6 3b 2e 95 7e 4f 0d 3c dc 8e ef e2 be a5 77
       -1 -90 59 46 -107 126 79 13 60 -36 -114 -17 -30 -66 -91 119
000010 c9 2e 6c de fc e0 64 67 81 9d 1f 37 95 33 11 79
       -55 46 108 -34 -4 -32 100 103 -127 -99 31 55 -107 51 17 121
000020 8c ac 85 8b 05 34 de 82 57 f7 0b fa be 21 76 8e
       -116 -84 -123 -117 5 52 -34 -126 87 -9 11 -6 -66 33 118 -114
000030 84 a4 20 03 77 a0 4b bf 0a 90 8f f6 8d 52 e2 64
       -124 -92 32 3 119 -96 75 -65 10 -112 -113 -10 -115 82 -30 100
000040 db 1f e0 91 d0 6d ce fc 55 1b a1 5e e1 a3 bb 5f
       -37 31 -32 -111 -48 109 -50 -4 85 27 -95 94 -31 -93 -69 95
000050 a6 d9 7b 5d 32 6d 0f 68 b8 c2 ef 64 3c 33 4a 21
       -90 -39 123 93 50 109 15 104 -72 -62 -17 100 60 51 74 33
000060 c8 c1 d5 c5 0b 6d 46 da 39 88 b4 09 53 75 cd b4
       -56 -63 -43 -59 11 109 70 -38 57 -120 -76 9 83 117 -51 -76
000070 c6 81 0f 62 d0 7d 07 73 d6 01 74 d8 fa b9 8a e3
       -58 -127 15 98 -48 125 7 115 -42 1 116 -40 -6 -71 -118 -29
000080 ad 6d 2f 99 ca 8b 6d e4 4d 00 a7 28 34 06 56 38
       -83 109 47 -103 -54 -117 109 -28 77 0 -89 40 52 6 86 56
000090 89 43 cf 44 fb bd a5 4a 9f 65 68 c3 a5 dd b8 bb
       -119 67 -49 68 -5 -67 -91 74 -97 101 104 -61 -91 -35 -72 -69
0000a0 3b f1 ad 8c 5e c0 84 81 07 3a 84 6e e2 56 d6 f8
       59 -15 -83 -116 94 -64 -124 -127 7 58 -124 110 -30 86 -42 -8
0000b0 94 fb 29 7d 63 19 35 14 aa c8 f7 1f 94 ef 20 2e
       -108 -5 41 125 99 25 53 20 -86 -56 -9 31 -108 -17 32 46
0000c0 99 50 88 e7 aa 59 a1 e6 0b fb a3 9c 92 8f 9f 1e
       -103 80 -120 -25 -86 89 -95 -26 11 -5 -93 -100 -110 -113 -97 30
0000d0 21 f0 36 cc 33 8c 0c a3 1e 08 77 4f a9 4c f2 6e
       33 -16 54 -52 51 -116 12 -93 30 8 119 79 -87 76 -14 110
0000e0 3c 4c 97 eb d1 f5 e4 c2 0c c6 c0 21 5e 2b ce 37
       60 76 -105 -21 -47 -11 -28 -62 12 -58 -64 33 94 43 -50 55
0000f0 ae 08 7f 4e c8 97 d6 c4 d3 1a 9c 11 8f 0e 09 59
       -82 8 127 78 -56 -105 -42 -60 -45 26 -100 17 -113 14 9 89

tfl.pseudo_qconst5 i1 [64, 3, 3, 32]
000000 dc 04 9f c8 5a f7 23 17 25 26 d9 a7 9e 58 17 c1
       -36 4 -97 -56 90 -9 35 23 37 38 -39 -89 -98 88 23 -63
000010 48 ab 56 4e 3e 9b bb 52 2f 5f 67 22 92 9d 92 60
       72 -85 86 78 62 -101 -69 82 47 95 103 34 -110 -99 -110 96
000020 2c 19 f8 c3 02 2f a6 cd c7 b6 70 70 d6 dc 70 d4
       44 25 -8 -61 2 47 -90 -51 -57 -74 112 112 -42 -36 112 -44
000030 35 02 fb 27 8c 5e 21 23 1e 66 a3 e1 56 35 32 04
       53 2 -5 39 -116 94 33 35 30 102 -93 -31 86 53 50 4
000040 5b 9d aa e4 2f cb 23 b4 be 6a c6 bc e5 49 f9 b0
       91 -99 -86 -28 47 -53 35 -76 -66 106 -58 -68 -27 73 -7 -80
000050 4a b3 ff 51 f9 93 00 a8 6a 47 f1 35 ac 24 e1 da
       74 -77 -1 81 -7 -109 0 -88 106 71 -15 53 -84 36 -31 -38
000060 bb 3a 5d 19 3b 50 83 bf e1 dc 5e d3 d2 0f 11 28
       -69 58 93 25 59 80 -125 -65 -31 -36 94 -45 -46 15 17 40
000070 8e 8f 69 8f c1 11 60 01 95 72 fe 9a 1e 8c 24 a9
       -114 -113 105 -113 -63 17 96 1 -107 114 -2 -102 30 -116 36 -87
000080 38 eb 26 37 c3 f7 6c 44 e8 f1 dc b9 67 08 c2 a2
       56 -21 38 55 -61 -9 108 68 -24 -15 -36 -71 103 8 -62 -94
000090 d8 dc be f6 9b ae 99 09 d0 4b a7 9f 2d ec 9c 45
       -40 -36 -66 -10 -101 -82 -103 9 -48 75 -89 -97 45 -20 -100 69
0000a0 c6 13 f1 dc 0f b5 52 54 5b 8d d4 b5 e6 a2 68 aa
       -58 19 -15 -36 15 -75 82 84 91 -115 -44 -75 -26 -94 104 -86
0000b0 6c 8b a4 00 1a 3a 82 68 b6 d1 cd 59 87 5a 5c ae
       108 -117 -92 0 26 58 -126 104 -74 -47 -51 89 -121 90 92 -82
0000c0 ec 69 28 bc 45 84 59 5a cf 64 c9 52 0d cb c0 5a
       -20 105 40 -68 69 -124 89 90 -49 100 -55 82 13 -53 -64 90
0000d0 16 e4 30 cc 90 0f ba 0a 93 a8 29 4c 95 9a 72 fc
       22 -28 48 -52 -112 15 -70 10 -109 -88 41 76 -107 -102 114 -4
0000e0 6a 06 a2 9d 28 e5 60 13 51 a2 3a ec 89 4e 6f d7
       106 6 -94 -99 40 -27 96 19 81 -94 58 -20 -119 78 111 -41
0000f0 c9 8b 55 38 e0 43 1a 51 29 67 9c 50 66 06 3c 0c
       -55 -117 85 56 -32 67 26 81 41 103 -100 80 102 6 60 12

tfl.pseudo_qconst7 i1 [32, 3, 3, 16]
000000 b0 bd 62 08 81 66 9b 2c fb 49 1f 4b 17 74 08 cf
       -80 -67 98 8 -127 102 -101 44 -5 73 31 75 23 116 8 -49
000010 ef ca e0 54 2f b9 cb 18 4b f1 20 21 3c 59 1d c7
       -17 -54 -32 84 47 -71 -53 24 75 -15 32 33 60 89 29 -57
000020 07 66 f6 99 b7 08 8c 44 66 99 31 aa fd 9f 3a f2
       7 102 -10 -103 -73 8 -116 68 102 -103 49 -86 -3 -97 58 -14
000030 56 da 25 cb 8d dd 4e a9 3c 8a c9 9d de a0 3f ec
       86 -38 37 -53 -115 -35 78 -87 60 -118 -55 -99 -34 -96 63 -20
000040 a7 36 d1 08 cc fa ba c2 00 e4 30 0c 4f e9 44 0b
       -89 54 -47 8 -52 -6 -70 -62 0 -28 48 12 79 -23 68 11
000050 d0 8b d2 77 98 d1 77 3a ec 28 d1 06 94 b2 11 b9
       -48 -117 -46 119 -104 -47 119 58 -20 40 -47 6 -108 -78 17 -71
000060 34 83 b7 b0 3b 3c c2 d4 f4 fa a2 32 f2 a3 20 d6
       52 -125 -73 -80 59 60 -62 -44 -12 -6 -94 50 -14 -93 32 -42
000070 94 25 5a fa 38 e7 4d 78 83 52 ec db f8 38 ab fb
       -108 37 90 -6 56 -25 77 120 -125 82 -20 -37 -8 56 -85 -5
000080 61 78 bf 92 3c 05 e0 9d 53 f9 d1 75 30 3f 75 35
       97 120 -65 -110 60 5 -32 -99 83 -7 -47 117 48 63 117 53
000090 5f 20 12 d9 6f 45 4b 19 cf 8b e3 71 03 c7 39 d5
       95 32 18 -39 111 69 75 25 -49 -117 -29 113 3 -57 57 -43
0000a0 c4 d2 4f c7 eb bf 68 26 cc f5 9b 04 97 4c 1f 01
       -60 -46 79 -57 -21 -65 104 38 -52 -11 -101 4 -105 76 31 1
0000b0 b9 df 5e 6f 00 d0 86 9c 42 b6 eb c1 05 2d ad 19
       -71 -33 94 111 0 -48 -122 -100 66 -74 -21 -63 5 45 -83 25
0000c0 06 e2 db 1a 2e 92 c4 56 09 24 f6 1f 9d 3a ce b2
       6 -30 -37 26 46 -110 -60 86 9 36 -10 31 -99 58 -50 -78
0000d0 fe f9 27 06 02 4c f2 81 1d 63 8d bb 2c 92 fc b9
       -2 -7 39 6 2 76 -14 -127 29 99 -115 -69 44 -110 -4 -71
0000e0 9a 3e 92 4d d6 23 82 5e 29 00 31 00 d1 31 ac e5
       -102 62 -110 77 -42 35 -126 94 41 0 49 0 -47 49 -84 -27
0000f0 84 ce 20 05 77 fd 3e 51 64 f4 95 ca d1 13 76 43
       -124 -50 32 5 119 -3 62 81 100 -12 -107 -54 -47 19 118 67

tfl.pseudo_qconst9 i1 [16, 3, 3, 3]
000000 13 04 61 63 7f 79 d8 99 91 4c 12 f8 6f bc de 6f
       19 4 97 99 127 121 -40 -103 -111 76 18 -8 111 -68 -34 111
000010 45 5c 6c 38 74 55 ee 92 d5 f5 c1 aa 77 e0 72 ef
       69 92 108 56 116 85 -18 -110 -43 -11 -63 -86 119 -32 114 -17
000020 b8 6b 1e 11 94 28 e4 33 af 6b 45 4d 96 70 6f 0e
       -72 107 30 17 -108 40 -28 51 -81 107 69 77 -106 112 111 14
000030 7f 07 9d f5 af 2f b1 cc 7f 6e 7d a3 a0 92 a8 6b
       127 7 -99 -11 -81 47 -79 -52 127 110 125 -93 -96 -110 -88 107
000040 8f 98 65 2d 38 68 e7 5b ac 2c ca 86 d8 d7 57 99
       -113 -104 101 45 56 104 -25 91 -84 44 -54 -122 -40 -41 87 -103
000050 43 f9 6f b4 eb 0f 3b 1a 87 52 08 10 22 67 b4 b0
       67 -7 111 -76 -21 15 59 26 -121 82 8 16 34 103 -76 -80
000060 bd b0 a8 ff ff 29 81 16 d2 07 ca ad 6d 0d 5c 8e
       -67 -80 -88 -1 -1 41 -127 22 -46 7 -54 -83 109 13 92 -114
000070 9d 1b 4c 9b 0e 8b 1b 4f 81 56 3e 29 56 35 b3 c8
       -99 27 76 -101 14 -117 27 79 -127 86 62 41 86 53 -77 -56
000080 25 62 af 21 c4 c0 c6 f8 53 1e 4f 4d 29 f3 b6 d0
       37 98 -81 33 -60 -64 -58 -8 83 30 79 77 41 -13 -74 -48
000090 ea 69 52 5c 0e 48 4a 70 a6 6a a5 61 81 69 b8 da
       -22 105 82 92 14 72 74 112 -90 106 -91 97 -127 105 -72 -38
0000a0 3f 99 93 91 52 45 46 40 f1 92 f9 40 43 70 9b 23
       63 -103 -109 -111 82 69 70 64 -15 -110 -7 64 67 112 -101 35
0000b0 e2 81 03 4b 13 bb 17 20 ae db 68 fd d4 fc 12 74
       -30 -127 3 75 19 -69 23 32 -82 -37 104 -3 -44 -4 18 116
0000c0 fc 2e 87 5e 8c 29 81 52 8f eb 34 90 a2 b8 20 3f
       -4 46 -121 94 -116 41 -127 82 -113 -21 52 -112 -94 -72 32 63
0000d0 31 54 ea e0 28 22 27 78 34 5a 75 42 cc 18 2e 62
       49 84 -22 -32 40 34 39 120 52 90 117 66 -52 24 46 98
0000e0 fd 19 4a 76 9a 9f 81 c5 62 d1 be 25 25 48 74 47
       -3 25 74 118 -102 -97 -127 -59 98 -47 -66 37 37 72 116 71
0000f0 59 e8 a4 af 6d ba 28 a0 a9 6a 95 ba 14 f4 af 81
       89 -24 -92 -81 109 -70 40 -96 -87 106 -107 -70 20 -12 -81 -127
