firmware/models/species_detection/bird/bird_classifier.tflite (tflite, 36224 bytes, 9 tensors)

tfl.pseudo_qconst1 i1 [7, 32]
-33 65 26 -111 16 45 71 127
-27 116 127 -5 93 22 -120 -72
-93 34 71 104 62 109 -108 101
54 73 -70 -23 42 -5 80 -102
-107 -9 -104 42 -14 -43 47 -95
24 -11 117 76 -80 120 88 -2
47 -127 -86 -110 17 -28 7 25
-2 27 40 -124 -67 -65 24 100
-103 12 97 6 126 97 5 -50
-25 108 106 109 -17 80 89 104
-101 -93 127 119 -38 39 -14 -76
83 44 21 -31 -52 27 -14 -12
-71 -74 -26 -109 -43 124 -45 52
-70 93 11 -13 127 104 114 106
-51 119 38 -8 -50 88 4 -126
101 92 5 -37 -114 -93 125 -127
-54 24 83 -94 -125 -63 26 66
-64 27 -44 -43 -93 -59 127 -91
30 31 106 -89 -58 -61 -21 51
48 106 -26 -125 109 25 -34 24
-102 118 125 71 -104 -12 -32 -124
99 -16 -78 -50 -31 -53 43 52
-109 -84 23 60 -10 -67 -25 -83
127 46 92 -19 -6 -36 37 -92
-2 58 79 102 -6 102 -80 -113
67 -34 -24 118 103 63 -96 -114
-9 86 -48 -3 -86 -3 -81 -127
44 -124 -41 94 -36 67 52 95
00000000: df41 1a91 102d 477f e574 7ffb 5d16 88b8
00000010: a322 4768 3e6d 9465 3649 bae9 2afb 509a
00000020: 95f7 982a f2d5 2fa1 18f5 754c b078 58fe
00000030: 2f81 aa92 11e4 0719 fe1b 2884 bdbf 1864
00000040: 990c 6106 7e61 05ce e76c 6a6d ef50 5968
00000050: 9ba3 7f77 da27 f2b4 532c 15e1 cc1b f2f4
00000060: b9b6 e693 d57c d334 ba5d 0bf3 7f68 726a
00000070: cd77 26f8 ce58 0482 655c 05db 8ea3 7d81
00000080: ca18 53a2 83c1 1a42 c01b d4d5 a3c5 7fa5
00000090: 1e1f 6aa7 c6c3 eb33 306a e683 6d19 de18
000000a0: 9a76 7d47 98f4 e084 63f0 b2ce e1cb 2b34
000000b0: 93ac 173c f6bd e7ad 7f2e 5ced fadc 25a4
000000c0: fe3a 4f66 fa66 b08f 43de e876 673f a08e
000000d0: f756 d0fd aafd af81 2c84 d75e dc43 345f

tfl.pseudo_qconst3 i1 [32, 64]
68 91 102 100 5 36 0 65
6 -51 112 -111 -78 -13 -112 34
-8 18 49 -107 -52 -123 -127 122
-74 -4 -29 -48 -23 -91 58 119
107 -34 -36 55 52 45 -18 43
10 -66 -7 -73 8 23 37 65
-22 -16 -118 -97 -42 -39 -31 97
-11 -10 -66 -55 -59 46 38 84
89 44 -7 43 -88 -127 -110 114
0 -34 -78 -112 108 -98 74 110
-118 92 79 -126 -63 -23 32 96
-34 -54 -27 -116 -62 -54 104 -17
-75 -1 58 112 11 -104 59 -36
46 -18 -121 13 -68 94 61 -28
63 -116 39 -1 -9 83 -104 14
-96 -103 -24 64 34 -72 91 84
44 43 24 -95 -43 55 -115 110
62 -60 -74 29 57 81 127 86
-85 -17 -119 -26 18 84 39 101
-16 -96 13 58 114 104 109 -111
65 55 5 48 90 -6 16 48
-78 80 10 -35 -89 66 -112 -35
60 61 -99 19 -39 -55 4 -59
29 -9 -40 -124 -95 -31 10 -108
81 -83 48 55 4 -112 94 -121
-103 -82 -50 103 82 -108 78 -50
-122 -73 33 21 -126 29 57 -25
-37 18 -10 -90 -100 -11 -45 -127
90 89 11 -85 -63 -88 90 83
22 -85 -33 99 88 -49 -102 67
30 -107 34 83 -122 75 73 -105
66 -69 118 -73 14 -16 -57 -114
00000000: 445b 6664 0524 0041 06cd 7091 b2f3 9022
00000010: f812 3195 cc85 817a b6fc e3d0 e9a5 3a77
00000020: 6bde dc37 342d ee2b 0abe f9b7 0817 2541
00000030: eaf0 8a9f d6d9 e161 f5f6 bec9 c52e 2654
00000040: 592c f92b a881 9272 00de b290 6c9e 4a6e
00000050: 8a5c 4f82 c1e9 2060 deca e58c c2ca 68ef
00000060: b5ff 3a70 0b98 3bdc 2eee 870d bc5e 3de4
00000070: 3f8c 27ff f753 980e a099 e840 22b8 5b54
00000080: 2c2b 18a1 d537 8d6e 3ec4 b61d 3951 7f56
00000090: abef 89e6 1254 2765 f0a0 0d3a 7268 6d91
000000a0: 4137 0530 5afa 1030 b250 0add a742 90dd
000000b0: 3c3d 9d13 d9c9 04c5 1df7 d884 a1e1 0a94
000000c0: 51ad 3037 0490 5e87 99ae ce67 5294 4ece
000000d0: 86b7 2115 821d 39e7 db12 f6a6 9cf5 d381
000000e0: 5a59 0bab c1a8 5a53 16ab df63 58cf 9a43
000000f0: 1e95 2253 864b 4997 42bb 76b7 0ef0 c78e

tfl.pseudo_qconst5 i1 [64, 3, 3, 32]
43 -29 -120 87 104 -111 59 -22
23 83 -4 -20 56 -84 -71 -10
20 17 53 99 -74 -32 13 -122
90 -30 -29 -60 -102 -54 13 -85
61 34 115 33 -118 27 20 72
-81 58 -87 -68 -113 30 96 69
-127 54 -8 104 -115 -61 8 87
84 95 78 -18 114 67 3 -83
32 -32 -59 -17 13 -2 -6 24
-79 102 -52 -85 66 -94 -7 69
6 4 64 -100 -91 -77 -38 -25
119 -67 -127 87 -74 -79 -43 80
5 36 100 -15 13 79 -30 27
57 -67 56 -72 47 102 -11 -47
87 -116 -36 -76 -13 -116 -4 -74
-117 38 11 105 -111 -49 -32 -63
-115 -24 -18 81 51 58 -56 6
86 -22 85 -36 -100 -60 -69 -88
-112 -112 -84 -57 66 -8 39 112
-12 18 17 96 -118 -109 -26 72
-36 -5 -37 -7 75 -102 -67 -102
28 21 98 35 -84 -71 -49 -43
-37 104 -51 -50 57 -51 -98 -114
58 -102 113 -110 -52 74 -107 -17
9 44 91 -76 51 39 -78 -21
42 102 61 -82 -19 19 -69 94
-126 -119 98 47 -123 -105 83 52
30 -69 17 97 102 83 58 98
86 100 90 -13 -71 -22 -117 -32
34 114 -78 -109 -50 -83 125 103
22 -103 2 -50 37 87 66 -71
89 -57 108 28 90 88 11 -79
00000000: 2be3 8857 6891 3bea 1753 fcec 38ac b9f6
00000010: 1411 3563 b6e0 0d86 5ae2 e3c4 9aca 0dab
00000020: 3d22 7321 8a1b 1448 af3a a9bc 8f1e 6045
00000030: 8136 f868 8dc3 0857 545f 4eee 7243 03ad
00000040: 20e0 c5ef 0dfe fa18 b166 ccab 42a2 f945
00000050: 0604 409c a5b3 dae7 77bd 8157 b6b1 d550
00000060: 0524 64f1 0d4f e21b 39bd 38b8 2f66 f5d1
00000070: 578c dcb4 f38c fcb6 8b26 0b69 91cf e0c1
00000080: 8de8 ee51 333a c806 56ea 55dc 9cc4 bba8
00000090: 9090 acc7 42f8 2770 f412 1160 8a93 e648
000000a0: dcfb dbf9 4b9a bd9a 1c15 6223 acb9 cfd5
000000b0: db68 cdce 39cd 9e8e 3a9a 7192 cc4a 95ef
000000c0: 092c 5bb4 3327 b2eb 2a66 3dae ed13 bb5e
000000d0: 8289 622f 8597 5334 1ebb 1161 6653 3a62
000000e0: 5664 5af3 b9ea 8be0 2272 b293 cead 7d67
000000f0: 1699 02ce 2557 42b9 59c7 6c1c 5a58 0bb1

tfl.pseudo_qconst6 i1 [32] scale=0.0037458246 zero_point=127
-0.014983298 -0.1535788 -0.26220772 -0.95518523 -0.8840146 -0.48321137 -0.014983298 -0.15732463
-0.63304436 -0.6892317 -0.82033557 -0.3221409 -0.427024 -0.052441545 -0.007491649 -0.029966597
-0.8390647 -0.09364562 -0.018729122 -0.3970574 -0.68174005 -0.7753857 -0.026220772 -0.101137266
-0.007491649 -0.026220772 -0.55063623 -0.09364562 -0.50568634 -0.3521075 -0.011237474 -0.0037458246
00000000: 7b56 3980 93fe 7b55 d6c7 a429 0d71 7d77
00000010: 9f66 7a15 c9b0 7864 7d78 ec66 f821 7c7e

tfl.pseudo_qconst7 i1 [32] scale=0.005008889 zero_point=-128
1.2672489 1.21716 1.1921155 1.1219912 1.1169822 1.1620622 1.2722578 1.21716
1.1520444 1.1520444 1.1570534 1.1770889 1.1570534 1.2572311 1.2772666 1.2672489
1.1169822 1.2371956 1.2722578 1.1820978 1.1570534 1.1320089 1.26224 1.2422044
1.2772666 1.26224 1.1470356 1.2422044 1.1470356 1.1770889 1.2722578 1.2772666
00000000: 7d73 6e60 5f68 7e73 6666 676b 677b 7f7d
00000010: 5f77 7e6c 6762 7c78 7f7c 6578 656b 7e7f

tfl.pseudo_qconst9 i1 [32, 3, 3, 16]
-49 15 -71 -2 21 46 -75 -23
46 18 -80 -75 -45 -51 5 38
-111 -30 99 33 9 -27 26 -87
65 -55 4 -27 -103 -105 56 7
47 -37 -48 78 -67 -38 -96 32
70 -82 60 85 33 -24 -73 -23
10 78 22 81 21 -63 -95 48
-99 -14 -119 -76 -70 18 -105 27
-124 17 21 -103 25 -127 52 -107
-86 -29 -93 5 -79 -9 -110 -78
48 -49 -39 3 -23 7 -14 99
68 -115 -4 -106 20 80 100 -28
62 -76 40 11 81 -116 83 -117
86 -59 -76 -8 -17 -127 9 -90
-48 -45 -73 -98 -74 -89 -9 60
21 106 32 -30 83 -44 41 -28
-72 -61 -33 18 -21 -15 -49 84
-6 38 110 -6 95 1 106 -45
27 -70 -87 120 110 48 38 -38
-113 57 104 -25 -53 -63 -86 -64
-78 9 89 105 67 -68 -64 79
124 -97 -91 -1 33 117 70 39
-32 126 -88 -7 31 -40 20 91
31 -30 -55 -107 -105 48 -67 -63
-67 -17 -85 -109 111 -59 -58 126
126 -48 -16 -53 127 38 47 43
-106 55 98 -113 -53 -65 16 64
-20 86 -47 7 -78 -59 48 49
105 -83 107 124 97 -47 30 -25
-93 81 -71 -86 70 85 -20 -37
109 -54 -43 -53 -43 10 -12 -74
78 91 -22 123 -104 -84 33 -26
00000000: cf0f b9fe 152e b5e9 2e12 b0b5 d3cd 0526
00000010: 91e2 6321 09e5 1aa9 41c9 04e5 9997 3807
00000020: 2fdb d04e bdda a020 46ae 3c55 21e8 b7e9
00000030: 0a4e 1651 15c1 a130 9df2 89b4 ba12 971b
00000040: 8411 1599 1981 3495 aae3 a305 b1f7 92b2
00000050: 30cf d903 e907 f263 448d fc96 1450 64e4
00000060: 3eb4 280b 518c 538b 56c5 b4f8 ef81 09a6
00000070: d0d3 b79e b6a7 f73c 156a 20e2 53d4 29e4
00000080: b8c3 df12 ebf1 cf54 fa26 6efa 5f01 6ad3
00000090: 1bba a978 6e30 26da 8f39 68e7 cbc1 aac0
000000a0: b209 5969 43bc c04f 7c9f a5ff 2175 4627
000000b0: e07e a8f9 1fd8 145b 1fe2 c995 9730 bdc1
000000c0: bdef ab93 6fc5 c67e 7ed0 f0cb 7f26 2f2b
000000d0: 9637 628f cbbf 1040 ec56 d107 b2c5 3031
000000e0: 69ad 6b7c 61d1 1ee7 a351 b9aa 4655 ecdb
000000f0: 6dca d5cb d50a f4b6 4e5b ea7b 98ac 21e6

tfl.pseudo_qconst10 i1 [16] scale=0.0014691862 zero_point=120
-0.36435816 -0.09843547 -0.12928838 -0.22772385 -0.19687094 -0.036729652 0.0014691862 0.010284303
-0.03819884 -0.2321314 -0.16895641 -0.09843547 -0.07639768 -0.21009362 -0.113127336 -0.15867211
00000000: 8035 20dd f25f 797f 5eda 0535 44e9 2b0c

tfl.pseudo_qconst11 i1 [16] scale=0.0051001706 zero_point=-128
1.2801428 1.2801428 1.2903432 1.2699425 1.285243 1.2699425 1.2699425 1.3005435
1.2801428 1.254642 1.2648423 1.2699425 1.2750427 1.2750427 1.2801428 1.2750427
00000000: 7b7b 7d79 7c79 797f 7b76 7879 7a7a 7b7a

tfl.pseudo_qconst13 i1 [16, 3, 3, 3]
88 36 -8 1 68 127 75 68
43 118 11 -37 -48 42 17 -81
83 40 -92 -1 118 113 59 46
76 114 121 67 73 -43 -17 31
-110 -27 11 84 11 -84 98 112
44 -105 127 -52 -22 101 -35 111
-87 -107 82 -113 111 43 -109 19
-102 105 47 34 84 54 101 37
-125 38 -52 -17 9 10 -7 125
100 43 127 36 -68 -57 -105 26
26 -25 110 13 116 -115 -102 32
77 -70 127 -116 35 12 56 98
-37 -7 113 21 14 118 -67 15
119 112 -95 93 2 112 -81 -21
-25 127 121 75 -79 -57 100 -53
78 -38 70 66 48 -106 83 96
-1 -116 87 -56 -8 29 76 -8
-109 18 9 -87 -69 32 -87 -117
104 119 19 -114 127 -28 -19 -112
-65 121 125 86 -41 28 -122 99
67 100 -41 95 -63 40 58 -72
-106 -17 14 -19 -74 -15 -114 -35
-118 46 118 -127 35 37 -47 -117
-108 -102 101 46 56 66 20 -97
-84 -99 -32 77 64 -99 -62 21
-3 -57 -90 22 -4 -46 -37 -127
-107 -63 54 -107 93 -123 75 68
-63 80 -115 -75 69 50 111 117
30 59 -121 56 -16 50 -37 -102
-75 -76 127 1 126 27 61 89
-106 -51 -113 88 92 -13 -38 -36
22 -52 36 25 77 87 83 -94
00000000: 5824 f801 447f 4b44 2b76 0bdb d02a 11af
00000010: 5328 a4ff 7671 3b2e 4c72 7943 49d5 ef1f
00000020: 92e5 0b54 0bac 6270 2c97 7fcc ea65 dd6f
00000030: a995 528f 6f2b 9313 9a69 2f22 5436 6525
00000040: 8326 ccef 090a f97d 642b 7f24 bcc7 971a
00000050: 1ae7 6e0d 748d 9a20 4dba 7f8c 230c 3862
00000060: dbf9 7115 0e76 bd0f 7770 a15d 0270 afeb
00000070: e77f 794b b1c7 64cb 4eda 4642 3096 5360
00000080: ff8c 57c8 f81d 4cf8 9312 09a9 bb20 a98b
00000090: 6877 138e 7fe4 ed90 bf79 7d56 d71c 8663
000000a0: 4364 d75f c128 3ab8 96ef 0eed b6f1 8edd
000000b0: 8a2e 7681 2325 d18b 949a 652e 3842 149f
000000c0: ac9d e04d 409d c215 fdc7 a616 fcd2 db81
000000d0: 95c1 3695 5d85 4b44 c150 8db5 4532 6f75
000000e0: 1e3b 8738 f032 db9a b5b4 7f01 7e1b 3d59
000000f0: 96cd 8f58 5cf3 dadc 16cc 2419 4d57 53a2
