firmware/models/production/wildlife_classifier_v2_quantized.tflite (tflite, 190088 bytes, 14 tensors)

tfl.pseudo_qconst1 i1 [36, 64]
0	0xc6	-58
1	0x1b	27
2	0x09	9
3	0x1c	28
4	0x84	-124
5	0xd4	-44
6	0xc2	-62
7	0xbd	-67
8	0x4d	77
9	0x4f	79
10	0xb1	-79
11	0x4b	75
12	0x15	21
13	0x8d	-115
14	0x3a	58
15	0x91	-111
16	0xdd	-35
17	0x1c	28
18	0x43	67
19	0xfd	-3
20	0x14	20
21	0x8a	-118
22	0x73	115
23	0x9b	-101
24	0x6f	111
25	0x54	84
26	0x15	21
27	0x28	40
28	0xd1	-47
29	0xc2	-62
30	0x2f	47
31	0x6e	110
32	0x7b	123
33	0xdf	-33
34	0xa3	-93
35	0xb3	-77
36	0x0b	11
37	0x90	-112
38	0x86	-122
39	0xc1	-63
40	0x02	2
41	0xec	-20
42	0x5b	91
43	0xbc	-68
44	0x35	53
45	0x9a	-102
46	0x48	72
47	0x79	121
48	0x32	50
49	0x70	112
50	0x3e	62
51	0xb9	-71
52	0xe7	-25
53	0xda	-38
54	0x81	-127
55	0x75	117
56	0x79	121
57	0xe2	-30
58	0xda	-38
59	0xbc	-68
60	0xeb	-21
61	0x16	22
62	0x92	-110
63	0xce	-50
64	0x93	-109
65	0x5b	91
66	0xd1	-47
67	0xec	-20
68	0x9d	-99
69	0x11	17
70	0x63	99
71	0xd2	-46
72	0xc7	-57
73	0x4c	76
74	0x8e	-114
75	0x87	-121
76	0xc9	-55
77	0xfc	-4
78	0x37	55
79	0xa3	-93
80	0x66	102
81	0x29	41
82	0xa5	-91
83	0xba	-70
84	0x8f	-113
85	0x72	114
86	0x81	-127
87	0xd0	-48
88	0x3d	61
89	0x84	-124
90	0xdd	-35
91	0x47	71
92	0x9c	-100
93	0xc5	-59
94	0x06	6
95	0x59	89
96	0x5e	94
97	0xec	-20
98	0x34	52
99	0x9c	-100
100	0x13	19
101	0xc1	-63
102	0x0f	15
103	0xc1	-63
104	0xdd	-35
105	0x56	86
106	0xb8	-72
107	0x6b	107
108	0xe4	-28
109	0x95	-107
110	0x15	21
111	0x76	118
112	0x38	56
113	0xda	-38
114	0x72	114
115	0x4a	74
116	0x8e	-114
117	0x0e	14
118	0x23	35
119	0x6c	108
120	0x82	-126
121	0x76	118
122	0x9a	-102
123	0xde	-34
124	0x89	-119
125	0x1d	29
126	0xe2	-30
127	0xfd	-3
128	0xc0	-64
129	0x19	25
130	0x43	67
131	0x54	84
132	0x09	9
133	0x22	34
134	0xd5	-43
135	0x43	67
136	0x97	-105
137	0xe5	-27
138	0x05	5
139	0x1f	31
140	0x37	55
141	0x50	80
142	0x3c	60
143	0xed	-19
144	0x06	6
145	0x70	112
146	0xfc	-4
147	0x2e	46
148	0xc8	-56
149	0x0d	13
150	0xfd	-3
151	0x0b	11
152	0x42	66
153	0xca	-54
154	0xd9	-39
155	0xc9	-55
156	0x89	-119
157	0x4d	77
158	0x81	-127
159	0x5f	95
160	0x51	81
161	0x5b	91
162	0xf6	-10
163	0x6d	109
164	0xc7	-57
165	0xe2	-30
166	0x11	17
167	0x0c	12
168	0x81	-127
169	0x47	71
170	0x18	24
171	0x28	40
172	0x2c	44
173	0x81	-127
174	0x4e	78
175	0x8b	-117
176	0xac	-84
177	0xaf	-81
178	0xb9	-71
179	0x6e	110
180	0xe9	-23
181	0x9f	-97
182	0x4f	79
183	0xfa	-6
184	0xe2	-30
185	0x6e	110
186	0x0a	10
187	0x6b	107
188	0x25	37
189	0x2e	46
190	0x1b	27
191	0xa8	-88
192	0x11	17
193	0x15	21
194	0x2a	42
195	0x3b	59
196	0xb5	-75
197	0xd1	-47
198	0xb8	-72
199	0xeb	-21
200	0xbe	-66
201	0x94	-108
202	0x23	35
203	0x27	39
204	0xaf	-81
205	0x48	72
206	0xef	-17
207	0x76	118
208	0xc1	-63
209	0x54	84
210	0xdb	-37
211	0xf3	-13
212	0x73	115
213	0x3d	61
214	0x6a	106
215	0xa6	-90
216	0x1b	27
217	0xf3	-13
218	0xb3	-77
219	0x22	34
220	0xac	-84
221	0xed	-19
222	0xc8	-56
223	0xa3	-93
224	0x90	-112
225	0x99	-103
226	0xba	-70
227	0xde	-34
228	0xd1	-47
229	0x9a	-102
230	0x79	121
231	0x4b	75
232	0x01	1
233	0xd9	-39
234	0xd4	-44
235	0x45	69
236	0xca	-54
237	0x4a	74
238	0xa6	-90
239	0xf6	-10
240	0x5f	95
241	0xb6	-74
242	0xe8	-24
243	0x27	39
244	0x81	-127
245	0x01	1
246	0x90	-112
247	0x31	49
248	0xc0	-64
249	0x2a	42
250	0xb3	-77
251	0x19	25
252	0xe9	-23
253	0x2b	43
254	0xc1	-63
255	0x35	53

tfl.pseudo_qconst3 i1 [64, 128]
0	0x02	2
1	0xa1	-95
2	0x87	-121
3	0x90	-112
4	0xaf	-81
5	0xfb	-5
6	0xeb	-21
7	0x5e	94
8	0xea	-22
9	0x98	-104
10	0x5c	92
11	0x87	-121
12	0x60	96
13	0xae	-82
14	0x96	-106
15	0x02	2
16	0x96	-106
17	0xb6	-74
18	0xf1	-15
19	0xef	-17
20	0xb2	-78
21	0x4b	75
22	0x50	80
23	0x85	-123
24	0x52	82
25	0x87	-121
26	0x32	50
27	0xd7	-41
28	0xbb	-69
29	0x99	-103
30	0xa0	-96
31	0xc7	-57
32	0x46	70
33	0xd8	-40
34	0x78	120
35	0x85	-123
36	0xb7	-73
37	0xc3	-61
38	0x79	121
39	0x1e	30
40	0x0d	13
41	0xf6	-10
42	0x07	7
43	0xab	-85
44	0x10	16
45	0x1c	28
46	0xa2	-94
47	0x94	-108
48	0x42	66
49	0xf4	-12
50	0x81	-127
51	0xfa	-6
52	0xc7	-57
53	0x95	-107
54	0x5f	95
55	0xa5	-91
56	0xcd	-51
57	0xce	-50
58	0x2a	42
59	0x14	20
60	0x01	1
61	0x05	5
62	0xcc	-52
63	0xd1	-47
64	0xff	-1
65	0xd9	-39
66	0x40	64
67	0x2b	43
68	0x12	18
69	0x08	8
70	0x8b	-117
71	0x65	101
72	0xd9	-39
73	0xe1	-31
74	0xf1	-15
75	0xbb	-69
76	0xfa	-6
77	0x55	85
78	0xd2	-46
79	0x4f	79
80	0x20	32
81	0x43	67
82	0xa6	-90
83	0x49	73
84	0xbd	-67
85	0x36	54
86	0x7f	127
87	0x71	113
88	0xfe	-2
89	0x9b	-101
90	0xdc	-36
91	0xe9	-23
92	0x42	66
93	0x8b	-117
94	0x8e	-114
95	0xa3	-93
96	0x5b	91
97	0xd5	-43
98	0xc8	-56
99	0xb9	-71
100	0x13	19
101	0xbd	-67
102	0x17	23
103	0x9b	-101
104	0xbb	-69
105	0x68	104
106	0x68	104
107	0x4c	76
108	0xfc	-4
109	0x56	86
110	0xe5	-27
111	0x20	32
112	0x75	117
113	0xf3	-13
114	0x23	35
115	0x0d	13
116	0x8c	-116
117	0xf3	-13
118	0x69	105
119	0x20	32
120	0xc8	-56
121	0x9e	-98
122	0xa8	-88
123	0x83	-125
124	0xc1	-63
125	0xb5	-75
126	0xc5	-59
127	0x2f	47
128	0x44	68
129	0xd6	-42
130	0x05	5
131	0x9d	-99
132	0x0a	10
133	0x51	81
134	0x99	-103
135	0x3e	62
136	0xfb	-5
137	0x57	87
138	0x9f	-97
139	0xbb	-69
140	0x69	105
141	0xe6	-26
142	0xad	-83
143	0x42	66
144	0x4d	77
145	0xc1	-63
146	0x93	-109
147	0x55	85
148	0x1c	28
149	0xca	-54
150	0xf1	-15
151	0x9a	-102
152	0xc7	-57
153	0xc2	-62
154	0xd1	-47
155	0x65	101
156	0x69	105
157	0xf7	-9
158	0x1b	27
159	0x2d	45
160	0x41	65
161	0x2b	43
162	0xaf	-81
163	0xb3	-77
164	0x34	52
165	0x57	87
166	0x84	-124
167	0x6f	111
168	0x54	84
169	0x1d	29
170	0x64	100
171	0xcc	-52
172	0xc7	-57
173	0x14	20
174	0x3c	60
175	0x30	48
176	0x3a	58
177	0x62	98
178	0x1f	31
179	0x0d	13
180	0xf3	-13
181	0xbb	-69
182	0xa4	-92
183	0xe5	-27
184	0x15	21
185	0xa3	-93
186	0x0d	13
187	0x12	18
188	0xad	-83
189	0x0b	11
190	0xbe	-66
191	0xf6	-10
192	0x97	-105
193	0x66	102
194	0xbf	-65
195	0xb1	-79
196	0x49	73
197	0x7a	122
198	0xb5	-75
199	0x0f	15
200	0x7d	125
201	0x15	21
202	0x2f	47
203	0x57	87
204	0xa9	-87
205	0x76	118
206	0x84	-124
207	0x3a	58
208	0xad	-83
209	0x1f	31
210	0xbd	-67
211	0xab	-85
212	0x64	100
213	0xee	-18
214	0x6d	109
215	0x2e	46
216	0xc9	-55
217	0xc7	-57
218	0xd7	-41
219	0x91	-111
220	0x7f	127
221	0xb2	-78
222	0xfd	-3
223	0x87	-121
224	0xb6	-74
225	0xd0	-48
226	0x8b	-117
227	0x7a	122
228	0x14	20
229	0xcd	-51
230	0xc3	-61
231	0xea	-22
232	0xab	-85
233	0x2f	47
234	0x09	9
235	0x5f	95
236	0x20	32
237	0x34	52
238	0xf3	-13
239	0x62	98
240	0x6a	106
241	0x06	6
242	0xb9	-71
243	0x58	88
244	0xfe	-2
245	0x84	-124
246	0xe9	-23
247	0xc2	-62
248	0xd1	-47
249	0x93	-109
250	0x47	71
251	0x77	119
252	0x87	-121
253	0x18	24
254	0x1f	31
255	0x5b	91

tfl.pseudo_qconst5 i1 [128, 128]
0	0x53	83
1	0xd0	-48
2	0x44	68
3	0xb4	-76
4	0x07	7
5	0x48	72
6	0xca	-54
7	0x5b	91
8	0x2e	46
9	0x16	22
10	0x6c	108
11	0x9f	-97
12	0xb1	-79
13	0x4e	78
14	0xc8	-56
15	0x15	21
16	0xaa	-86
17	0xff	-1
18	0xda	-38
19	0xee	-18
20	0x81	-127
21	0x23	35
22	0xee	-18
23	0x4c	76
24	0x92	-110
25	0x8d	-115
26	0x40	64
27	0x6a	106
28	0xc9	-55
29	0x19	25
30	0x9d	-99
31	0x40	64
32	0xbd	-67
33	0xe3	-29
34	0xae	-82
35	0x55	85
36	0xb4	-76
37	0xb7	-73
38	0x61	97
39	0x13	19
40	0x34	52
41	0xd3	-45
42	0xd9	-39
43	0x8f	-113
44	0x59	89
45	0x34	52
46	0xae	-82
47	0x37	55
48	0x91	-111
49	0x41	65
50	0xcc	-52
51	0xf0	-16
52	0x5b	91
53	0xd1	-47
54	0x3f	63
55	0x95	-107
56	0x06	6
57	0xfd	-3
58	0x94	-108
59	0x2f	47
60	0xb0	-80
61	0x0e	14
62	0x3f	63
63	0xf3	-13
64	0x51	81
65	0x5c	92
66	0xe2	-30
67	0xb4	-76
68	0xfe	-2
69	0x5c	92
70	0xc9	-55
71	0xd1	-47
72	0x35	53
73	0xdd	-35
74	0x58	88
75	0x32	50
76	0x26	38
77	0x31	49
78	0xfd	-3
79	0xfe	-2
80	0xed	-19
81	0xfc	-4
82	0xc0	-64
83	0xb0	-80
84	0xf0	-16
85	0x8c	-116
86	0x71	113
87	0xb7	-73
88	0x45	69
89	0xd0	-48
90	0xe7	-25
91	0x07	7
92	0x3a	58
93	0x23	35
94	0x5b	91
95	0x46	70
96	0x67	103
97	0x50	80
98	0x0e	14
99	0x57	87
100	0x06	6
101	0x60	96
102	0x4a	74
103	0xbc	-68
104	0x58	88
105	0xcb	-53
106	0x27	39
107	0xa7	-89
108	0x25	37
109	0x8c	-116
110	0xb1	-79
111	0x11	17
112	0x65	101
113	0x6e	110
114	0xd2	-46
115	0x9e	-98
116	0x05	5
117	0x3f	63
118	0x2c	44
119	0xb4	-76
120	0x0e	14
121	0x1e	30
122	0x9d	-99
123	0x56	86
124	0xec	-20
125	0xf1	-15
126	0x05	5
127	0xf6	-10
128	0x75	117
129	0xea	-22
130	0x96	-106
131	0xc4	-60
132	0x6b	107
133	0xd4	-44
134	0x03	3
135	0x36	54
136	0x01	1
137	0xc8	-56
138	0x66	102
139	0x96	-106
140	0xed	-19
141	0xdf	-33
142	0xb7	-73
143	0xf5	-11
144	0xe5	-27
145	0x19	25
146	0x0f	15
147	0xb2	-78
148	0x2b	43
149	0xe2	-30
150	0xe7	-25
151	0x2b	43
152	0x45	69
153	0xd1	-47
154	0x65	101
155	0xfa	-6
156	0x17	23
157	0xad	-83
158	0x82	-126
159	0xe3	-29
160	0x51	81
161	0xf9	-7
162	0xcb	-53
163	0x39	57
164	0x07	7
165	0x9f	-97
166	0x60	96
167	0x65	101
168	0x40	64
169	0x38	56
170	0x5d	93
171	0xc6	-58
172	0xf1	-15
173	0x1f	31
174	0x15	21
175	0x23	35
176	0x87	-121
177	0x6d	109
178	0x66	102
179	0x03	3
180	0x05	5
181	0xcc	-52
182	0x90	-112
183	0xdf	-33
184	0x02	2
185	0x7e	126
186	0xcf	-49
187	0xeb	-21
188	0x0e	14
189	0xa1	-95
190	0xde	-34
191	0x81	-127
192	0xd9	-39
193	0x48	72
194	0xec	-20
195	0x6d	109
196	0x73	115
197	0x94	-108
198	0x31	49
199	0xfb	-5
200	0xae	-82
201	0xc8	-56
202	0xf4	-12
203	0x87	-121
204	0x61	97
205	0xa1	-95
206	0x4a	74
207	0x53	83
208	0xbd	-67
209	0x73	115
210	0xa1	-95
211	0x57	87
212	0xa6	-90
213	0x02	2
214	0xe3	-29
215	0xa4	-92
216	0x78	120
217	0xb0	-80
218	0x97	-105
219	0x4a	74
220	0x4a	74
221	0x2d	45
222	0xe7	-25
223	0xd9	-39
224	0x8c	-116
225	0xf1	-15
226	0x9e	-98
227	0x84	-124
228	0xeb	-21
229	0x07	7
230	0x30	48
231	0x32	50
232	0x6e	110
233	0x67	103
234	0x95	-107
235	0xf0	-16
236	0x8e	-114
237	0x39	57
238	0x6d	109
239	0x6b	107
240	0x3a	58
241	0x8d	-115
242	0x17	23
243	0x83	-125
244	0xec	-20
245	0x01	1
246	0xc6	-58
247	0xd1	-47
248	0x62	98
249	0xca	-54
250	0x89	-119
251	0x46	70
252	0x2b	43
253	0xe9	-23
254	0xe6	-26
255	0x64	100

tfl.pseudo_qconst6 i1 [128] scale=0.0026916433 zero_point=122
0	0x25	-0.22878969
1	0x7b	0.0026916433
2	0x7f	0.013458217
3	0x78	-0.0053832866
4	0x1f	-0.24493954
5	0x4d	-0.12112395
6	0x37	-0.1803401
7	0xbc	-0.5114122
8	0x52	-0.10766573
9	0x45	-0.1426571
10	0x0a	-0.30146405
11	0x62	-0.06459944
12	0x2c	-0.20994818
13	0x33	-0.19110668
14	0xec	-0.38221335
15	0x42	-0.15073203
16	0x2c	-0.20994818
17	0x0b	-0.2987724
18	0x07	-0.309539
19	0x15	-0.27185598
20	0x00	-0.3283805
21	0x6c	-0.037683006
22	0xaf	-0.5464036
23	0x2b	-0.21263982
24	0x38	-0.17764845
25	0x61	-0.06729108
26	0x78	-0.0053832866
27	0x6a	-0.043066293
28	0x75	-0.013458217
29	0xe8	-0.39297992
30	0xe4	-0.4037465
31	0x4e	-0.118432306
32	0x1e	-0.24763119
33	0x2b	-0.21263982
34	0x0b	-0.2987724
35	0x55	-0.0995908
36	0xd2	-0.45219606
37	0x5f	-0.07267437
38	0xe9	-0.3902883
39	0x0a	-0.30146405
40	0x74	-0.01614986
41	0x09	-0.3041557
42	0xcf	-0.460271
43	0xce	-0.46296266
44	0x18	-0.26378104
45	0xb1	-0.54102033
46	0xe4	-0.4037465
47	0x5c	-0.0807493
48	0x79	-0.0026916433
49	0x77	-0.00807493
50	0x28	-0.22071475
51	0x20	-0.2422479
52	0xf3	-0.36337185
53	0x48	-0.13458216
54	0xfb	-0.3418387
55	0x4f	-0.115740664
56	0x77	-0.00807493
57	0x07	-0.309539
58	0x7f	0.013458217
59	0x26	-0.22609803
60	0xd0	-0.45757937
61	0x6e	-0.03229972
62	0xf2	-0.36606348
63	0x50	-0.113049015
64	0x35	-0.1857234
65	0x7c	0.0053832866
66	0x29	-0.2180231
67	0x6d	-0.03499136
68	0x60	-0.06998272
69	0x08	-0.30684733
70	0x61	-0.06729108
71	0x8c	-0.6406111
72	0xf2	-0.36606348
73	0xeb	-0.38490498
74	0xc5	-0.48718745
75	0xdd	-0.422588
76	0x26	-0.22609803
77	0xeb	-0.38490498
78	0x15	-0.27185598
79	0xde	-0.41989636
80	0x1e	-0.24763119
81	0x1a	-0.25839776
82	0x7c	0.0053832866
83	0x69	-0.045757934
84	0x7c	0.0053832866
85	0x05	-0.31492227
86	0x7b	0.0026916433
87	0x70	-0.026916433
88	0x6a	-0.043066293
89	0x20	-0.2422479
90	0x80	-0.6729108
91	0x77	-0.00807493
92	0xac	-0.5544785
93	0xf5	-0.35798857
94	0xd3	-0.44950444
95	0x64	-0.059216153
96	0x16	-0.26916432
97	0x48	-0.13458216
98	0x73	-0.018841503
99	0xf3	-0.36337185
100	0xfa	-0.34453034
101	0x79	-0.0026916433
102	0x6f	-0.029608076
103	0x70	-0.026916433
104	0x7b	0.0026916433
105	0x5f	-0.07267437
106	0x69	-0.045757934
107	0x26	-0.22609803
108	0x31	-0.19648996
109	0xc0	-0.50064564
110	0x36	-0.18303174
111	0x73	-0.018841503
112	0x4c	-0.123815596
113	0x76	-0.010766573
114	0x23	-0.23417297
115	0xa8	-0.5652451
116	0xfd	-0.3364554
117	0x79	-0.0026916433
118	0x0d	-0.2933891
119	0x6e	-0.03229972
120	0x44	-0.14534874
121	0x56	-0.09689916
122	0x8b	-0.64330274
123	0x7d	0.00807493
124	0xd0	-0.45757937
125	0x5e	-0.07536601
126	0x6d	-0.03499136
127	0x66	-0.053832866

tfl.pseudo_qconst7 i1 [128] scale=0.0046486733 zero_point=-128
0	0x6f	1.111033
1	0x7c	1.1714656
2	0x7b	1.1668171
3	0x7c	1.1714656
4	0x6a	1.0877895
5	0x72	1.1249789
6	0x70	1.1156816
7	0x64	1.0598975
8	0x72	1.1249789
9	0x71	1.1203303
10	0x6b	1.0924382
11	0x77	1.1482223
12	0x6e	1.1063843
13	0x6d	1.1017356
14	0x69	1.0831409
15	0x74	1.1342763
16	0x6f	1.111033
17	0x6b	1.0924382
18	0x6b	1.0924382
19	0x69	1.0831409
20	0x68	1.0784922
21	0x77	1.1482223
22	0x66	1.0691949
23	0x6b	1.0924382
24	0x6b	1.0924382
25	0x74	1.1342763
26	0x7c	1.1714656
27	0x73	1.1296276
28	0x7d	1.1761143
29	0x65	1.0645462
30	0x68	1.0784922
31	0x73	1.1296276
32	0x6c	1.0970869
33	0x6d	1.1017356
34	0x6b	1.0924382
35	0x72	1.1249789
36	0x67	1.0738436
37	0x74	1.1342763
38	0x67	1.0738436
39	0x6b	1.0924382
40	0x7e	1.180763
41	0x68	1.0784922
42	0x67	1.0738436
43	0x67	1.0738436
44	0x6d	1.1017356
45	0x66	1.0691949
46	0x67	1.0738436
47	0x74	1.1342763
48	0x7e	1.180763
49	0x7d	1.1761143
50	0x6d	1.1017356
51	0x6d	1.1017356
52	0x69	1.0831409
53	0x75	1.138925
54	0x6a	1.0877895
55	0x72	1.1249789
56	0x7c	1.1714656
57	0x69	1.0831409
58	0x7d	1.1761143
59	0x6e	1.1063843
60	0x64	1.0598975
61	0x7b	1.1668171
62	0x6b	1.0924382
63	0x72	1.1249789
64	0x6c	1.0970869
65	0x7a	1.1621684
66	0x70	1.1156816
67	0x79	1.1575197
68	0x75	1.138925
69	0x6b	1.0924382
70	0x78	1.152871
71	0x67	1.0738436
72	0x68	1.0784922
73	0x67	1.0738436
74	0x67	1.0738436
75	0x69	1.0831409
76	0x6f	1.111033
77	0x6a	1.0877895
78	0x6a	1.0877895
79	0x69	1.0831409
80	0x6b	1.0924382
81	0x6c	1.0970869
82	0x7e	1.180763
83	0x7a	1.1621684
84	0x7c	1.1714656
85	0x67	1.0738436
86	0x7b	1.1668171
87	0x7a	1.1621684
88	0x79	1.1575197
89	0x6f	1.111033
90	0x66	1.0691949
91	0x7d	1.1761143
92	0x66	1.0691949
93	0x67	1.0738436
94	0x65	1.0645462
95	0x7a	1.1621684
96	0x69	1.0831409
97	0x73	1.1296276
98	0x7a	1.1621684
99	0x6c	1.0970869
100	0x67	1.0738436
101	0x7c	1.1714656
102	0x79	1.1575197
103	0x7b	1.1668171
104	0x7c	1.1714656
105	0x75	1.138925
106	0x78	1.152871
107	0x6c	1.0970869
108	0x70	1.1156816
109	0x68	1.0784922
110	0x70	1.1156816
111	0x7b	1.1668171
112	0x70	1.1156816
113	0x7a	1.1621684
114	0x71	1.1203303
115	0x67	1.0738436
116	0x6e	1.1063843
117	0x7c	1.1714656
118	0x6b	1.0924382
119	0x77	1.1482223
120	0x70	1.1156816
121	0x70	1.1156816
122	0x63	1.0552489
123	0x7f	1.1854117
124	0x65	1.0645462
125	0x76	1.1435736
126	0x77	1.1482223
127	0x74	1.1342763

tfl.pseudo_qconst9 i1 [128, 3, 3, 64]
0	0x50	80
1	0xb2	-78
2	0xc4	-60
3	0x5c	92
4	0x0c	12
5	0x16	22
6	0x6e	110
7	0x2a	42
8	0xc5	-59
9	0x44	68
10	0x99	-103
11	0xd0	-48
12	0xba	-70
13	0x09	9
14	0x72	114
15	0xc3	-61
16	0x99	-103
17	0x72	114
18	0x24	36
19	0x40	64
20	0x6a	106
21	0x0f	15
22	0x1a	26
23	0x44	68
24	0x1a	26
25	0x7b	123
26	0xe5	-27
27	0xe4	-28
28	0x2a	42
29	0x45	69
30	0x0e	14
31	0x14	20
32	0x9c	-100
33	0x62	98
34	0x69	105
35	0x0b	11
36	0x0c	12
37	0x08	8
38	0xe4	-28
39	0xc3	-61
40	0x2e	46
41	0x63	99
42	0x77	119
43	0xc1	-63
44	0xa3	-93
45	0xa2	-94
46	0x05	5
47	0xb8	-72
48	0xc5	-59
49	0xbc	-68
50	0xf4	-12
51	0xf6	-10
52	0x28	40
53	0xc3	-61
54	0xc1	-63
55	0x6d	109
56	0xcd	-51
57	0x40	64
58	0xb7	-73
59	0x53	83
60	0xa5	-91
61	0x43	67
62	0x8e	-114
63	0x9d	-99
64	0x4e	78
65	0x44	68
66	0xae	-82
67	0x6b	107
68	0xe9	-23
69	0x1b	27
70	0xf3	-13
71	0x41	65
72	0x4a	74
73	0x07	7
74	0x63	99
75	0xa1	-95
76	0x36	54
77	0x8c	-116
78	0xff	-1
79	0xe7	-25
80	0xda	-38
81	0x29	41
82	0xda	-38
83	0xb8	-72
84	0x9b	-101
85	0x5e	94
86	0xfd	-3
87	0xe8	-24
88	0xa1	-95
89	0x8c	-116
90	0xc0	-64
91	0xb3	-77
92	0xe9	-23
93	0xa0	-96
94	0x9f	-97
95	0xcf	-49
96	0xb2	-78
97	0x4a	74
98	0xcd	-51
99	0x56	86
100	0x3f	63
101	0x33	51
102	0xfa	-6
103	0x0a	10
104	0x4d	77
105	0x07	7
106	0xb4	-76
107	0x4a	74
108	0x1c	28
109	0x91	-111
110	0x0f	15
111	0x87	-121
112	0xe4	-28
113	0xd6	-42
114	0x5c	92
115	0x2e	46
116	0xe3	-29
117	0x2b	43
118	0xb9	-71
119	0xd4	-44
120	0xa2	-94
121	0x2f	47
122	0x35	53
123	0xe6	-26
124	0x1a	26
125	0x24	36
126	0x1b	27
127	0xc7	-57
128	0xeb	-21
129	0xe1	-31
130	0xad	-83
131	0xeb	-21
132	0xfb	-5
133	0x10	16
134	0x9c	-100
135	0x1f	31
136	0x5f	95
137	0x4e	78
138	0xe2	-30
139	0xbc	-68
140	0xf3	-13
141	0x48	72
142	0x33	51
143	0x47	71
144	0xe4	-28
145	0x6d	109
146	0x96	-106
147	0x11	17
148	0xe0	-32
149	0xfe	-2
150	0x54	84
151	0x6a	106
152	0xab	-85
153	0xfa	-6
154	0xc6	-58
155	0xe6	-26
156	0x1d	29
157	0xe3	-29
158	0x14	20
159	0x85	-123
160	0xca	-54
161	0xe4	-28
162	0x08	8
163	0x4a	74
164	0x39	57
165	0x25	37
166	0xa6	-90
167	0xf5	-11
168	0xd4	-44
169	0x21	33
170	0xce	-50
171	0xfc	-4
172	0x2a	42
173	0xb6	-74
174	0xe0	-32
175	0xfa	-6
176	0xd3	-45
177	0x05	5
178	0x59	89
179	0xa6	-90
180	0x1b	27
181	0xd0	-48
182	0x7f	127
183	0x28	40
184	0x93	-109
185	0xa6	-90
186	0xd4	-44
187	0x2c	44
188	0x43	67
189	0x4c	76
190	0x2b	43
191	0xce	-50
192	0x58	88
193	0x66	102
194	0x45	69
195	0x24	36
196	0xbd	-67
197	0x0b	11
198	0xc5	-59
199	0x4a	74
200	0x06	6
201	0xca	-54
202	0xf3	-13
203	0x2b	43
204	0xce	-50
205	0xce	-50
206	0x68	104
207	0x55	85
208	0xcf	-49
209	0x02	2
210	0x85	-123
211	0x38	56
212	0x11	17
213	0x9a	-102
214	0xbf	-65
215	0x01	1
216	0x5e	94
217	0x46	70
218	0xe7	-25
219	0x72	114
220	0x6b	107
221	0xcc	-52
222	0xea	-22
223	0xc5	-59
224	0xb5	-75
225	0xd8	-40
226	0x4e	78
227	0x66	102
228	0x49	73
229	0xcf	-49
230	0x0c	12
231	0xf8	-8
232	0xe5	-27
233	0x08	8
234	0xda	-38
235	0x4f	79
236	0x61	97
237	0x64	100
238	0xf9	-7
239	0x52	82
240	0x71	113
241	0x1c	28
242	0xc9	-55
243	0xca	-54
244	0xc7	-57
245	0xb6	-74
246	0x2a	42
247	0x73	115
248	0x72	114
249	0x46	70
250	0x64	100
251	0x12	18
252	0x12	18
253	0xe7	-25
254	0x42	66
255	0x30	48

tfl.pseudo_qconst11 i1 [64, 3, 3, 64]
0	0x9c	-100
1	0x36	54
2	0x22	34
3	0xf2	-14
4	0x51	81
5	0xbf	-65
6	0x61	97
7	0xca	-54
8	0xdf	-33
9	0x56	86
10	0x28	40
11	0x33	51
12	0x92	-110
13	0xc5	-59
14	0xd4	-44
15	0xc5	-59
16	0xf8	-8
17	0xc9	-55
18	0x70	112
19	0x03	3
20	0x1e	30
21	0x2f	47
22	0xd3	-45
23	0x0d	13
24	0xeb	-21
25	0xc7	-57
26	0x97	-105
27	0x4c	76
28	0xac	-84
29	0xc7	-57
30	0x4d	77
31	0x45	69
32	0xc4	-60
33	0xee	-18
34	0xdb	-37
35	0x43	67
36	0x04	4
37	0x26	38
38	0x9c	-100
39	0x3b	59
40	0xb9	-71
41	0x9d	-99
42	0xc0	-64
43	0xa0	-96
44	0x69	105
45	0x49	73
46	0x1b	27
47	0xc8	-56
48	0x2d	45
49	0x32	50
50	0x64	100
51	0x36	54
52	0xa5	-91
53	0xb3	-77
54	0xe7	-25
55	0x6b	107
56	0xb6	-74
57	0x39	57
58	0x99	-103
59	0xef	-17
60	0x3a	58
61	0xe9	-23
62	0x48	72
63	0x50	80
64	0x20	32
65	0x17	23
66	0x20	32
67	0x27	39
68	0x03	3
69	0xca	-54
70	0xe1	-31
71	0x8f	-113
72	0x1e	30
73	0xd2	-46
74	0x11	17
75	0x21	33
76	0xae	-82
77	0xdb	-37
78	0xfd	-3
79	0x3f	63
80	0xbb	-69
81	0xcd	-51
82	0x21	33
83	0xff	-1
84	0x14	20
85	0xb2	-78
86	0x72	114
87	0xda	-38
88	0x5a	90
89	0x98	-104
90	0xa8	-88
91	0x45	69
92	0xe2	-30
93	0x29	41
94	0x26	38
95	0x31	49
96	0x76	118
97	0x14	20
98	0xca	-54
99	0xc7	-57
100	0x58	88
101	0x42	66
102	0xa3	-93
103	0x50	80
104	0xaf	-81
105	0xaf	-81
106	0xa5	-91
107	0x49	73
108	0x0d	13
109	0x00	0
110	0x2a	42
111	0x2a	42
112	0xbb	-69
113	0x6b	107
114	0xab	-85
115	0x53	83
116	0x50	80
117	0xa7	-89
118	0x53	83
119	0xa1	-95
120	0xa7	-89
121	0xa0	-96
122	0x40	64
123	0xd9	-39
124	0xbf	-65
125	0xa0	-96
126	0x3b	59
127	0x1f	31
128	0xb1	-79
129	0x23	35
130	0x3e	62
131	0x95	-107
132	0x45	69
133	0xf5	-11
134	0xfc	-4
135	0xa7	-89
136	0x15	21
137	0xf1	-15
138	0x05	5
139	0x05	5
140	0x4f	79
141	0x17	23
142	0x36	54
143	0xe9	-23
144	0xfa	-6
145	0xd3	-45
146	0xd3	-45
147	0xfc	-4
148	0x66	102
149	0xcf	-49
150	0xb7	-73
151	0x5c	92
152	0x75	117
153	0xa1	-95
154	0xde	-34
155	0x19	25
156	0x2b	43
157	0xfc	-4
158	0x5d	93
159	0xc8	-56
160	0xa1	-95
161	0x5f	95
162	0xcd	-51
163	0x41	65
164	0x5d	93
165	0xa3	-93
166	0xc6	-58
167	0xa6	-90
168	0xf8	-8
169	0x9c	-100
170	0x60	96
171	0xcd	-51
172	0x71	113
173	0x16	22
174	0xad	-83
175	0x96	-106
176	0xf4	-12
177	0x4d	77
178	0x73	115
179	0xd0	-48
180	0xbd	-67
181	0xfa	-6
182	0x9b	-101
183	0x00	0
184	0x10	16
185	0x73	115
186	0xab	-85
187	0x12	18
188	0x05	5
189	0xd3	-45
190	0x73	115
191	0x98	-104
192	0xeb	-21
193	0x25	37
194	0x40	64
195	0x56	86
196	0x3c	60
197	0x55	85
198	0x2f	47
199	0xee	-18
200	0x74	116
201	0xa7	-89
202	0xd2	-46
203	0x47	71
204	0x69	105
205	0x3e	62
206	0x64	100
207	0x0a	10
208	0x19	25
209	0x4d	77
210	0x4e	78
211	0x56	86
212	0x96	-106
213	0x2e	46
214	0x35	53
215	0xce	-50
216	0xa9	-87
217	0xaf	-81
218	0x2d	45
219	0x48	72
220	0xe0	-32
221	0xff	-1
222	0x65	101
223	0x26	38
224	0xb9	-71
225	0x90	-112
226	0xa9	-87
227	0x37	55
228	0x06	6
229	0x10	16
230	0x29	41
231	0x4b	75
232	0x6e	110
233	0x32	50
234	0xbd	-67
235	0xd5	-43
236	0xd5	-43
237	0xde	-34
238	0xe9	-23
239	0xdb	-37
240	0xa2	-94
241	0x12	18
242	0xc9	-55
243	0x42	66
244	0x99	-103
245	0x01	1
246	0x63	99
247	0xef	-17
248	0xf1	-15
249	0x47	71
250	0xce	-50
251	0xa4	-92
252	0xf0	-16
253	0x34	52
254	0x28	40
255	0x10	16

tfl.pseudo_qconst12 i1 [64] scale=0.0021531924 zero_point=122
0	0x33	-0.15287666
1	0xe4	-0.32297885
2	0x5f	-0.058136195
3	0x3f	-0.12703836
4	0xcb	-0.37680867
5	0x36	-0.14641708
6	0x7b	0.0021531924
7	0x47	-0.10981281
8	0xd4	-0.35742995
9	0x27	-0.17871498
10	0x7f	0.010765962
11	0x43	-0.118425585
12	0x80	-0.53829813
13	0x77	-0.006459577
14	0x75	-0.010765962
15	0x3d	-0.13134474
16	0x15	-0.21747243
17	0x5b	-0.06674896
18	0x2c	-0.167949
19	0x09	-0.24331075
20	0x41	-0.12273197
21	0x20	-0.19378732
22	0xe1	-0.32943845
23	0x42	-0.12057877
24	0x72	-0.01722554
25	0x6f	-0.023685116
26	0xff	-0.26484266
27	0x4b	-0.101200044
28	0x73	-0.015072347
29	0x65	-0.04521704
30	0x76	-0.00861277
31	0xb4	-0.4263321
32	0x77	-0.006459577
33	0x71	-0.019378731
34	0x41	-0.12273197
35	0xf7	-0.2820682
36	0x19	-0.20885967
37	0xa8	-0.4521704
38	0x7f	0.010765962
39	0x57	-0.075361736
40	0x15	-0.21747243
41	0x5d	-0.06244258
42	0x6d	-0.027991502
43	0x71	-0.019378731
44	0x67	-0.040910657
45	0x65	-0.04521704
46	0x4b	-0.101200044
47	0x77	-0.006459577
48	0xc6	-0.38757464
49	0x67	-0.040910657
50	0x79	-0.0021531924
51	0x15	-0.21747243
52	0xf1	-0.29498735
53	0x3b	-0.13565113
54	0x57	-0.075361736
55	0x11	-0.2260852
56	0x7e	0.00861277
57	0xb2	-0.4306385
58	0x0c	-0.23685117
59	0x18	-0.21101286
60	0x10	-0.22823839
61	0x76	-0.00861277
62	0x6b	-0.032297887
63	0x54	-0.081821315

tfl.pseudo_qconst13 i1 [64] scale=0.004660877 zero_point=-128
0	0x70	1.1186105
1	0x6d	1.1046278
2	0x77	1.1512367
3	0x74	1.137254
4	0x69	1.0859843
5	0x6f	1.1139495
6	0x7a	1.1652192
7	0x72	1.1279322
8	0x6d	1.1046278
9	0x70	1.1186105
10	0x78	1.1558975
11	0x72	1.1279322
12	0x68	1.0813235
13	0x7a	1.1652192
14	0x7c	1.174541
15	0x72	1.1279322
16	0x6d	1.1046278
17	0x76	1.1465757
18	0x72	1.1279322
19	0x6c	1.099967
20	0x70	1.1186105
21	0x6f	1.1139495
22	0x6b	1.095306
23	0x73	1.132593
24	0x7d	1.1792018
25	0x78	1.1558975
26	0x6d	1.1046278
27	0x71	1.1232713
28	0x7a	1.1652192
29	0x78	1.1558975
30	0x79	1.1605583
31	0x6b	1.095306
32	0x7c	1.174541
33	0x7a	1.1652192
34	0x72	1.1279322
35	0x6b	1.095306
36	0x71	1.1232713
37	0x6a	1.0906452
38	0x7d	1.1792018
39	0x76	1.1465757
40	0x6b	1.095306
41	0x76	1.1465757
42	0x7a	1.1652192
43	0x7b	1.1698802
44	0x77	1.1512367
45	0x79	1.1605583
46	0x76	1.1465757
47	0x7f	1.1885237
48	0x6b	1.095306
49	0x7e	1.1838627
50	0x7a	1.1652192
51	0x6f	1.1139495
52	0x6c	1.099967
53	0x71	1.1232713
54	0x73	1.132593
55	0x71	1.1232713
56	0x7c	1.174541
57	0x6c	1.099967
58	0x6d	1.1046278
59	0x6c	1.099967
60	0x6b	1.095306
61	0x78	1.1558975
62	0x7b	1.1698802
63	0x73	1.132593

tfl.pseudo_qconst15 i1 [64, 3, 3, 32]
0	0xfc	-4
1	0xf9	-7
2	0xd9	-39
3	0x47	71
4	0xe0	-32
5	0x3c	60
6	0xa7	-89
7	0xa6	-90
8	0xf9	-7
9	0x98	-104
10	0x8d	-115
11	0xa6	-90
12	0xb1	-79
13	0x40	64
14	0x68	104
15	0xe4	-28
16	0x0c	12
17	0xdd	-35
18	0x96	-106
19	0x2c	44
20	0x52	82
21	0x65	101
22	0xf7	-9
23	0x15	21
24	0xb7	-73
25	0xad	-83
26	0x6a	106
27	0xe4	-28
28	0x42	66
29	0x5d	93
30	0xce	-50
31	0x42	66
32	0x3b	59
33	0x04	4
34	0x22	34
35	0xfd	-3
36	0x43	67
37	0x0d	13
38	0xe3	-29
39	0xce	-50
40	0x07	7
41	0xe2	-30
42	0xf2	-14
43	0xfb	-5
44	0xf8	-8
45	0x1b	27
46	0x02	2
47	0xb9	-71
48	0x25	37
49	0xe5	-27
50	0xe4	-28
51	0xaa	-86
52	0x29	41
53	0xda	-38
54	0xd6	-42
55	0x27	39
56	0xc6	-58
57	0x58	88
58	0xa4	-92
59	0xc7	-57
60	0x3c	60
61	0x58	88
62	0x65	101
63	0x5a	90
64	0x0d	13
65	0x9e	-98
66	0xd1	-47
67	0x50	80
68	0x23	35
69	0x17	23
70	0x2d	45
71	0x5a	90
72	0xda	-38
73	0x1c	28
74	0x10	16
75	0x31	49
76	0xbc	-68
77	0x24	36
78	0x27	39
79	0x4e	78
80	0x2f	47
81	0x35	53
82	0xe7	-25
83	0x23	35
84	0x5e	94
85	0xf4	-12
86	0x0e	14
87	0xfd	-3
88	0x33	51
89	0x12	18
90	0xa8	-88
91	0xaf	-81
92	0x9f	-97
93	0xe2	-30
94	0xbb	-69
95	0xcb	-53
96	0x2e	46
97	0x39	57
98	0xb5	-75
99	0x0f	15
100	0x96	-106
101	0xdd	-35
102	0x98	-104
103	0x25	37
104	0xc0	-64
105	0x58	88
106	0xc2	-62
107	0xb4	-76
108	0x75	117
109	0x3e	62
110	0x0f	15
111	0x24	36
112	0x18	24
113	0x57	87
114	0x76	118
115	0x1d	29
116	0x10	16
117	0xfc	-4
118	0xce	-50
119	0xa7	-89
120	0x5c	92
121	0xf2	-14
122	0x67	103
123	0xbe	-66
124	0x19	25
125	0xdd	-35
126	0x56	86
127	0xe0	-32
128	0xb9	-71
129	0xbb	-69
130	0xa0	-96
131	0x9b	-101
132	0x0f	15
133	0xea	-22
134	0x35	53
135	0xe4	-28
136	0xc8	-56
137	0x29	41
138	0xd3	-45
139	0x6a	106
140	0xef	-17
141	0xde	-34
142	0x3b	59
143	0x5a	90
144	0x55	85
145	0x02	2
146	0xcc	-52
147	0x41	65
148	0xf0	-16
149	0x22	34
150	0x52	82
151	0x11	17
152	0x0a	10
153	0x68	104
154	0x56	86
155	0x0a	10
156	0x27	39
157	0xe1	-31
158	0x9e	-98
159	0x48	72
160	0x0a	10
161	0x5b	91
162	0x4a	74
163	0xfd	-3
164	0x0b	11
165	0x6a	106
166	0xa1	-95
167	0x39	57
168	0xbd	-67
169	0xad	-83
170	0x4e	78
171	0x30	48
172	0x92	-110
173	0xf6	-10
174	0x49	73
175	0x3f	63
176	0x45	69
177	0x68	104
178	0x4f	79
179	0x4e	78
180	0xa1	-95
181	0xf2	-14
182	0xa7	-89
183	0x53	83
184	0xe2	-30
185	0xa1	-95
186	0xa6	-90
187	0x38	56
188	0xde	-34
189	0x40	64
190	0x15	21
191	0x3e	62
192	0x08	8
193	0x0f	15
194	0xb3	-77
195	0x27	39
196	0xf4	-12
197	0xac	-84
198	0xf1	-15
199	0x49	73
200	0xa7	-89
201	0x0d	13
202	0xd3	-45
203	0xd5	-43
204	0x5f	95
205	0xe4	-28
206	0x2a	42
207	0x20	32
208	0xe5	-27
209	0xf1	-15
210	0x4b	75
211	0xda	-38
212	0x2f	47
213	0x1a	26
214	0x2a	42
215	0x58	88
216	0x9b	-101
217	0xb2	-78
218	0xc1	-63
219	0x5a	90
220	0xfa	-6
221	0xaa	-86
222	0x38	56
223	0x95	-107
224	0x1e	30
225	0x68	104
226	0xaf	-81
227	0x4c	76
228	0x0f	15
229	0x9d	-99
230	0xc9	-55
231	0xd0	-48
232	0xcd	-51
233	0x71	113
234	0x93	-109
235	0x05	5
236	0xaa	-86
237	0x59	89
238	0x4f	79
239	0x6f	111
240	0xe0	-32
241	0xf6	-10
242	0xe1	-31
243	0xd0	-48
244	0x13	19
245	0x4c	76
246	0xdd	-35
247	0x2c	44
248	0x0b	11
249	0x24	36
250	0xc1	-63
251	0xb7	-73
252	0xfe	-2
253	0xa2	-94
254	0x0f	15
255	0x54	84

tfl.pseudo_qconst17 i1 [32, 3, 3, 32]
0	0x94	-108
1	0xe5	-27
2	0x5c	92
3	0x5d	93
4	0xbe	-66
5	0xcb	-53
6	0x9b	-101
7	0x5f	95
8	0x2b	43
9	0xbe	-66
10	0x0c	12
11	0x07	7
12	0x5f	95
13	0x10	16
14	0x48	72
15	0x8f	-113
16	0x3d	61
17	0xc8	-56
18	0xc4	-60
19	0x3f	63
20	0xfc	-4
21	0x9c	-100
22	0x51	81
23	0xa2	-94
24	0x92	-110
25	0x69	105
26	0xdc	-36
27	0x94	-108
28	0x39	57
29	0x68	104
30	0xf1	-15
31	0xc2	-62
32	0xeb	-21
33	0xb0	-80
34	0x04	4
35	0xb9	-71
36	0x9e	-98
37	0x48	72
38	0xe1	-31
39	0xd1	-47
40	0xe8	-24
41	0xe5	-27
42	0xad	-83
43	0x34	52
44	0x9e	-98
45	0xee	-18
46	0x3d	61
47	0x6b	107
48	0x7f	127
49	0xf8	-8
50	0xf0	-16
51	0x25	37
52	0xbf	-65
53	0x17	23
54	0x75	117
55	0x22	34
56	0xc3	-61
57	0xf3	-13
58	0x21	33
59	0xd1	-47
60	0xd9	-39
61	0x03	3
62	0x4b	75
63	0xac	-84
64	0x06	6
65	0x8e	-114
66	0xe4	-28
67	0xea	-22
68	0x2a	42
69	0xb4	-76
70	0x1b	27
71	0x4e	78
72	0xa5	-91
73	0xf2	-14
74	0xe9	-23
75	0xfa	-6
76	0x19	25
77	0xd3	-45
78	0x5e	94
79	0xf9	-7
80	0xc1	-63
81	0x2d	45
82	0x5e	94
83	0xf9	-7
84	0x8d	-115
85	0xb9	-71
86	0x5b	91
87	0xb9	-71
88	0x9c	-100
89	0x37	55
90	0x13	19
91	0x75	117
92	0x61	97
93	0x18	24
94	0xa9	-87
95	0x19	25
96	0xb8	-72
97	0x2e	46
98	0x51	81
99	0xce	-50
100	0xd5	-43
101	0xd9	-39
102	0x4c	76
103	0xc0	-64
104	0x55	85
105	0x5a	90
106	0xfb	-5
107	0x38	56
108	0x47	71
109	0x25	37
110	0xf5	-11
111	0x06	6
112	0xe3	-29
113	0x28	40
114	0x4f	79
115	0xbe	-66
116	0xb1	-79
117	0x43	67
118	0x0f	15
119	0x24	36
120	0x50	80
121	0x69	105
122	0xe2	-30
123	0x69	105
124	0x84	-124
125	0xb4	-76
126	0x66	102
127	0xc0	-64
128	0x0d	13
129	0x5d	93
130	0x62	98
131	0xf6	-10
132	0xcc	-52
133	0xbd	-67
134	0xca	-54
135	0xfa	-6
136	0xc5	-59
137	0xe3	-29
138	0x6f	111
139	0x21	33
140	0x53	83
141	0x6e	110
142	0x5c	92
143	0x6d	109
144	0xda	-38
145	0x72	114
146	0x60	96
147	0xb3	-77
148	0x6e	110
149	0x19	25
150	0xda	-38
151	0x95	-107
152	0xb6	-74
153	0x36	54
154	0xe5	-27
155	0xd7	-41
156	0x35	53
157	0xf8	-8
158	0x62	98
159	0x74	116
160	0x04	4
161	0xa0	-96
162	0x0b	11
163	0x58	88
164	0xf4	-12
165	0x35	53
166	0xf8	-8
167	0x6d	109
168	0xf3	-13
169	0xe9	-23
170	0x4d	77
171	0x20	32
172	0x1c	28
173	0x0f	15
174	0x13	19
175	0xe8	-24
176	0x65	101
177	0xc4	-60
178	0xf4	-12
179	0xa2	-94
180	0xd4	-44
181	0x4c	76
182	0xaf	-81
183	0x2f	47
184	0x15	21
185	0x9c	-100
186	0xfd	-3
187	0x70	112
188	0x50	80
189	0xc6	-58
190	0xbc	-68
191	0x42	66
192	0x44	68
193	0xab	-85
194	0xbd	-67
195	0x71	113
196	0xfc	-4
197	0x15	21
198	0xf5	-11
199	0xcf	-49
200	0xa9	-87
201	0x97	-105
202	0xf8	-8
203	0xbc	-68
204	0x39	57
205	0x10	16
206	0x0b	11
207	0x04	4
208	0x4e	78
209	0x10	16
210	0x95	-107
211	0xdb	-37
212	0x66	102
213	0x26	38
214	0x9e	-98
215	0x3c	60
216	0x29	41
217	0xd6	-42
218	0x90	-112
219	0xb3	-77
220	0x94	-108
221	0x9c	-100
222	0x59	89
223	0x4b	75
224	0x45	69
225	0xbd	-67
226	0xa2	-94
227	0x43	67
228	0xde	-34
229	0x13	19
230	0xfd	-3
231	0x2c	44
232	0xc0	-64
233	0x02	2
234	0x9d	-99
235	0x36	54
236	0x96	-106
237	0x1a	26
238	0xa8	-88
239	0xc6	-58
240	0x5b	91
241	0xcd	-51
242	0xd4	-44
243	0xe7	-25
244	0x77	119
245	0x00	0
246	0x89	-119
247	0xbf	-65
248	0x37	55
249	0x04	4
250	0x15	21
251	0xe7	-25
252	0xae	-82
253	0xb0	-80
254	0x02	2
255	0xbf	-65

tfl.pseudo_qconst18 i1 [32] scale=0.00065353623 zero_point=120
0	0x4d	-0.028102059
1	0x06	-0.07450313
2	0x6a	-0.009149508
3	0x0d	-0.06992838
4	0x3a	-0.040519245
5	0x78	0.0
6	0x00	-0.07842435
7	0x30	-0.047054607
8	0x75	-0.0019606086
9	0x3c	-0.039212175
10	0xaa	-0.13462846
11	0x62	-0.014377797
12	0x7f	0.004574754
13	0x26	-0.05358997
14	0x7c	0.002614145
15	0x30	-0.047054607
16	0x8d	-0.15358101
17	0x76	-0.0013070725
18	0x80	-0.16207698
19	0x32	-0.045747537
20	0x6d	-0.0071888985
21	0x51	-0.025487913
22	0x5c	-0.018299015
23	0x86	-0.15815577
24	0x61	-0.015031333
25	0x6e	-0.0065353625
26	0x2f	-0.047708146
27	0x0b	-0.07123545
28	0x2e	-0.04836168
29	0x8e	-0.15292747
30	0x0c	-0.07058191
31	0xf1	-0.08822739

tfl.pseudo_qconst19 i1 [32] scale=0.0046653654 zero_point=-128
0	0x7b	1.1710067
1	0x79	1.161676
2	0x7c	1.175672
3	0x7b	1.1710067
4	0x7a	1.1663413
5	0x7d	1.1803374
6	0x7d	1.1803374
7	0x7a	1.1663413
8	0x78	1.1570107
9	0x7a	1.1663413
10	0x7b	1.1710067
11	0x7d	1.1803374
12	0x7a	1.1663413
13	0x7b	1.1710067
14	0x7e	1.1850028
15	0x7b	1.1710067
16	0x7a	1.1663413
17	0x7f	1.1896682
18	0x79	1.161676
19	0x7a	1.1663413
20	0x7c	1.175672
21	0x78	1.1570107
22	0x7c	1.175672
23	0x7c	1.175672
24	0x7b	1.1710067
25	0x7b	1.1710067
26	0x7a	1.1663413
27	0x7b	1.1710067
28	0x7d	1.1803374
29	0x79	1.161676
30	0x7e	1.1850028
31	0x7c	1.175672

tfl.pseudo_qconst21 i1 [32, 3, 3, 3]
0	0x65	101
1	0x0e	14
2	0xad	-83
3	0x91	-111
4	0x2b	43
5	0xbb	-69
6	0xf8	-8
7	0x03	3
8	0x75	117
9	0x76	118
10	0xc8	-56
11	0x12	18
12	0x90	-112
13	0xd4	-44
14	0x51	81
15	0xfc	-4
16	0x7f	127
17	0xe8	-24
18	0x0d	13
19	0x59	89
20	0xa9	-87
21	0x31	49
22	0x19	25
23	0x00	0
24	0x0d	13
25	0x1b	27
26	0xb3	-77
27	0x5b	91
28	0x26	38
29	0x4d	77
30	0x2d	45
31	0x6b	107
32	0x95	-107
33	0x05	5
34	0x9d	-99
35	0xe5	-27
36	0x7a	122
37	0x08	8
38	0x27	39
39	0x19	25
40	0x3d	61
41	0xb3	-77
42	0xde	-34
43	0xdf	-33
44	0x09	9
45	0x67	103
46	0xc1	-63
47	0x92	-110
48	0x60	96
49	0xf3	-13
50	0xe5	-27
51	0x4b	75
52	0x7f	127
53	0xfa	-6
54	0xd6	-42
55	0x6c	108
56	0xf2	-14
57	0xcf	-49
58	0xcf	-49
59	0x5e	94
60	0x0a	10
61	0x51	81
62	0xf8	-8
63	0x55	85
64	0x88	-120
65	0x2b	43
66	0x36	54
67	0xce	-50
68	0x99	-103
69	0xe4	-28
70	0xda	-38
71	0x2e	46
72	0x81	-127
73	0xc9	-55
74	0xf7	-9
75	0x26	38
76	0xb8	-72
77	0x46	70
78	0x21	33
79	0x22	34
80	0x22	34
81	0xe1	-31
82	0x54	84
83	0x55	85
84	0x3d	61
85	0xca	-54
86	0x3b	59
87	0x62	98
88	0x3e	62
89	0xd7	-41
90	0xf9	-7
91	0x74	116
92	0xd1	-47
93	0x88	-120
94	0x7f	127
95	0x64	100
96	0xd1	-47
97	0x41	65
98	0x72	114
99	0x9d	-99
100	0x9f	-97
101	0x5d	93
102	0xac	-84
103	0xf0	-16
104	0x76	118
105	0x9f	-97
106	0x04	4
107	0xea	-22
108	0x77	119
109	0x42	66
110	0x9c	-100
111	0xec	-20
112	0x66	102
113	0xd8	-40
114	0x34	52
115	0xee	-18
116	0xea	-22
117	0x84	-124
118	0xe5	-27
119	0xd0	-48
120	0x19	25
121	0xeb	-21
122	0x81	-127
123	0x4e	78
124	0x04	4
125	0xb9	-71
126	0xda	-38
127	0x50	80
128	0xfa	-6
129	0x71	113
130	0x76	118
131	0x75	117
132	0x03	3
133	0xc6	-58
134	0x1d	29
135	0xe6	-26
136	0xcd	-51
137	0x86	-122
138	0x4e	78
139	0xf4	-12
140	0xa0	-96
141	0x04	4
142	0x79	121
143	0x85	-123
144	0xe8	-24
145	0x76	118
146	0x18	24
147	0xca	-54
148	0x3a	58
149	0xab	-85
150	0xc2	-62
151	0x81	-127
152	0x5d	93
153	0x1c	28
154	0x2d	45
155	0x20	32
156	0x2b	43
157	0x23	35
158	0x21	33
159	0xf1	-15
160	0x93	-109
161	0x0a	10
162	0x76	118
163	0x32	50
164	0xd9	-39
165	0x83	-125
166	0x14	20
167	0x07	7
168	0x21	33
169	0xf2	-14
170	0x10	16
171	0x03	3
172	0x43	67
173	0x70	112
174	0x54	84
175	0xb5	-75
176	0xe1	-31
177	0x2c	44
178	0x54	84
179	0x24	36
180	0xf1	-15
181	0x53	83
182	0xf3	-13
183	0x4b	75
184	0x96	-106
185	0x7f	127
186	0xb4	-76
187	0xff	-1
188	0x0b	11
189	0x55	85
190	0x5e	94
191	0xe6	-26
192	0xe6	-26
193	0xd7	-41
194	0x2a	42
195	0xd5	-43
196	0x7f	127
197	0x3c	60
198	0x25	37
199	0xde	-34
200	0x7c	124
201	0xdc	-36
202	0x42	66
203	0xde	-34
204	0x73	115
205	0xea	-22
206	0x46	70
207	0xf9	-7
208	0x79	121
209	0xdf	-33
210	0x20	32
211	0xc5	-59
212	0xaa	-86
213	0xca	-54
214	0x93	-109
215	0xd0	-48
216	0xc5	-59
217	0x9d	-99
218	0xd7	-41
219	0x05	5
220	0x1b	27
221	0x91	-111
222	0x68	104
223	0x32	50
224	0xe2	-30
225	0xa6	-90
226	0xac	-84
227	0xa4	-92
228	0x81	-127
229	0x5f	95
230	0x04	4
231	0x76	118
232	0xe8	-24
233	0x11	17
234	0x47	71
235	0x33	51
236	0xbf	-65
237	0xb9	-71
238	0x35	53
239	0xaa	-86
240	0xeb	-21
241	0x11	17
242	0xf3	-13
243	0x7f	127
244	0x60	96
245	0x82	-126
246	0xf8	-8
247	0x21	33
248	0x49	73
249	0x3c	60
250	0xa8	-88
251	0x55	85
252	0xa2	-94
253	0x65	101
254	0x45	69
255	0xed	-19
