firmware/models/species_detection/deer/deer_classifier.tflite (tflite, 29928 bytes, 9 tensors)

tfl.pseudo_qconst1 i1 [6, 24]
00000000: d141 40f5 aad6 9075 42f3 d237 8760 f278
00000010: 066f 8175 17a0 db9e 2e63 912e 9b27 ffcc
00000020: d3c4 6a76 ee89 1771 7230 705e 9ff7 7fa8
00000030: 7f00 5ace efdc 1ef3 22b3 1107 9b27 5133
00000040: 2a38 a8ac 0623 fa6b cf7f a440 451b 3776
00000050: befe c1f3 25b8 c491 2390 593e 9f1d 5d27
00000060: adc1 75e8 42a1 bd7f a4f7 68f0 2c61 6a99
00000070: 84e7 2342 79e7 774a 4fd5 73cc 8547 8d7f
00000080: 7822 6900 8ed5 c859 6cd7 784e 5e35 8c33
-47 65 64 -11 -86 -42 -112 117
66 -13 -46 55 -121 96 -14 120
6 111 -127 117 23 -96 -37 -98
46 99 -111 46 -101 39 -1 -52
-45 -60 106 118 -18 -119 23 113
114 48 112 94 -97 -9 127 -88
127 0 90 -50 -17 -36 30 -13
34 -77 17 7 -101 39 81 51
42 56 -88 -84 6 35 -6 107
-49 127 -92 64 69 27 55 118
-66 -2 -63 -13 37 -72 -60 -111
35 -112 89 62 -97 29 93 39
-83 -63 117 -24 66 -95 -67 127
-92 -9 104 -16 44 97 106 -103
-124 -25 35 66 121 -25 119 74
79 -43 115 -52 -123 71 -115 127
120 34 105 0 -114 -43 -56 89
108 -41 120 78 94 53 -116 51

tfl.pseudo_qconst3 i1 [24, 48]
00000000: 01c0 6c34 67f5 7b1e 88aa 860b 12b0 5250
00000010: eca8 5d77 8134 6c43 4d2d 1463 6239 434c
00000020: aa1f 635a bac9 4a42 5e08 da51 7ac8 c8bc
00000030: 3c5e c02b cbb0 398c dfe1 3d26 0681 d773
00000040: 2acf 6664 74b6 fd52 0845 a0e8 91cf 0638
00000050: d5ac 847a 81cf 093c 011d 6b33 258c 24d7
00000060: 2fa5 5648 601e 6381 886a 3da9 b3ed 3683
00000070: d3ae 535e 4d8d b24d ad14 241c 16ed 93a3
00000080: 38dd 339c bb59 f495 73f4 01bd 2479 3671
00000090: 816c 048b 5826 316b 2dcd 4a1a f609 3297
000000a0: 85db 308f 3c5f d432 823f b6ec da0c 146b
000000b0: 54e3 1693 1aae 9f08 2560 1484 b622 9661
000000c0: 6c81 91de 1cf8 3dc3 7465 b18d 8fb1 24d1
000000d0: 2be9 a61b 4aa9 8ecc 24c0 e76e 0418 2508
000000e0: 345a 3c0b fa42 2786 868a 05d8 5b6e 4995
000000f0: 5d29 a470 be4e b912 83f6 4055 ad3c c077
1 -64 108 52 103 -11 123 30
-120 -86 -122 11 18 -80 82 80
-20 -88 93 119 -127 52 108 67
77 45 20 99 98 57 67 76
-86 31 99 90 -70 -55 74 66
94 8 -38 81 122 -56 -56 -68
60 94 -64 43 -53 -80 57 -116
-33 -31 61 38 6 -127 -41 115
42 -49 102 100 116 -74 -3 82
8 69 -96 -24 -111 -49 6 56
-43 -84 -124 122 -127 -49 9 60
1 29 107 51 37 -116 36 -41
47 -91 86 72 96 30 99 -127
-120 106 61 -87 -77 -19 54 -125
-45 -82 83 94 77 -115 -78 77
-83 20 36 28 22 -19 -109 -93
56 -35 51 -100 -69 89 -12 -107
115 -12 1 -67 36 121 54 113
-127 108 4 -117 88 38 49 107
45 -51 74 26 -10 9 50 -105
-123 -37 48 -113 60 95 -44 50
-126 63 -74 -20 -38 12 20 107
84 -29 22 -109 26 -82 -97 8
37 96 20 -124 -74 34 -106 97
108 -127 -111 -34 28 -8 61 -61
116 101 -79 -115 -113 -79 36 -47
43 -23 -90 27 74 -87 -114 -52
36 -64 -25 110 4 24 37 8
52 90 60 11 -6 66 39 -122
-122 -118 5 -40 91 110 73 -107
93 41 -92 112 -66 78 -71 18
-125 -10 64 85 -83 60 -64 119

tfl.pseudo_qconst5 i1 [48, 3, 3, 32]
00000000: 093b 6187 b83b b8f0 d6dd e405 ed8a cf33
00000010: f505 c71a f82d 0f81 99b0 f8f1 ff9e d5c8
00000020: 4c9a 220c da13 301d dc32 085f 5054 eaa8
00000030: 1224 3d07 0836 8bd7 fcbb 3e5b 0fb5 5fbf
00000040: dc93 0efc f7c1 9487 f7c6 0ca1 59c8 9841
00000050: 2b90 0a11 aeb8 cb56 410b d391 103a 9458
00000060: b1c5 a312 ea49 878b 3e2e 1bec 50ae 4645
00000070: 8b0c 9597 990b 1e51 863d a69e 0efd 8684
00000080: f408 05eb dc8f d695 05fc 5dbe 4463 5fd2
00000090: f262 8c0b 41bb 99f7 e1dd bb85 3f84 4ea0
000000a0: cc4a bba1 f4ca 8bb9 052f 8b2f b00b d1b8
000000b0: e613 2c25 d8ae daa2 2fbb dce1 5d2a 0a44
000000c0: 0ad9 4686 8904 e714 0e5f ce3e 182d 935d
000000d0: f28e fbdf 19bd 0dd4 aebc 62c5 8930 000a
000000e0: f366 8ffe 491a 5cb5 ad8a d407 b485 10c7
000000f0: 23e5 dacc 8f85 0b25 9426 ddd7 37ee 3f34
9 59 97 -121 -72 59 -72 -16
-42 -35 -28 5 -19 -118 -49 51
-11 5 -57 26 -8 45 15 -127
-103 -80 -8 -15 -1 -98 -43 -56
76 -102 34 12 -38 19 48 29
-36 50 8 95 80 84 -22 -88
18 36 61 7 8 54 -117 -41
-4 -69 62 91 15 -75 95 -65
-36 -109 14 -4 -9 -63 -108 -121
-9 -58 12 -95 89 -56 -104 65
43 -112 10 17 -82 -72 -53 86
65 11 -45 -111 16 58 -108 88
-79 -59 -93 18 -22 73 -121 -117
62 46 27 -20 80 -82 70 69
-117 12 -107 -105 -103 11 30 81
-122 61 -90 -98 14 -3 -122 -124
-12 8 5 -21 -36 -113 -42 -107
5 -4 93 -66 68 99 95 -46
-14 98 -116 11 65 -69 -103 -9
-31 -35 -69 -123 63 -124 78 -96
-52 74 -69 -95 -12 -54 -117 -71
5 47 -117 47 -80 11 -47 -72
-26 19 44 37 -40 -82 -38 -94
47 -69 -36 -31 93 42 10 68
10 -39 70 -122 -119 4 -25 20
14 95 -50 62 24 45 -109 93
-14 -114 -5 -33 25 -67 13 -44
-82 -68 98 -59 -119 48 0 10
-13 102 -113 -2 73 26 92 -75
-83 -118 -44 7 -76 -123 16 -57
35 -27 -38 -52 -113 -123 11 37
-108 38 -35 -41 55 -18 63 52

tfl.pseudo_qconst6 i1 [32] scale=0.003927898 zero_point=125
00000000: c97d a578 6b3b 79a3 ed27 7f26 173c fa79
00000010: ff80 7a9a 7ade 4329 0dd8 4972 ed76 75bf
-0.70702165 0.0 -0.848426 -0.01963949 -0.070702165 -0.25924128 -0.015711593 -0.8562818
-0.5656173 -0.33779925 0.007855796 -0.34172714 -0.4006456 -0.25531337 -0.5145547 -0.015711593
-0.49491516 -0.9937582 -0.011783695 -0.89163285 -0.011783695 -0.6245358 -0.22781809 -0.32994345
-0.4399246 -0.6481032 -0.20425071 -0.043206878 -0.5656173 -0.027495287 -0.031423185 -0.74630064

tfl.pseudo_qconst7 i1 [32] scale=0.004996099 zero_point=-128
00000000: 627d 5f7d 796a 7e5c 6b6a 7f6a 6670 6b7e
00000010: 6760 7f62 7e65 6f6c 6464 707c 667d 7c62
1.1291184 1.264013 1.1141301 1.264013 1.2440287 1.1690872 1.2690091 1.0991418
1.1740832 1.1690872 1.2740053 1.1690872 1.1491028 1.1990638 1.1740832 1.2690091
1.1540989 1.1191262 1.2740053 1.1291184 1.2690091 1.1441066 1.1940677 1.1790794
1.1391106 1.1391106 1.1990638 1.259017 1.1491028 1.264013 1.259017 1.1291184

tfl.pseudo_qconst9 i1 [32, 3, 3, 16]
00000000: 0744 1ffc 0630 f0bb 790b b0f8 1409 e10d
00000010: 325c 9dc6 ea1b 0207 574d ed2f 44cf 7f7c
00000020: e120 5ea2 7c48 2dc7 ac1c 16d9 f225 de5f
00000030: baa5 a5cb ea00 9b08 4f36 4e00 eb49 3d2e
00000040: 4956 cba4 58d2 3723 b4ab 0498 13d5 f141
00000050: 145d 046d 6ee6 cd73 4435 17c2 6e37 aa53
00000060: 15aa 3827 2569 6d04 6abe 07b5 311a e60e
00000070: d7b5 1073 316e 36be dcbb d218 577b a727
00000080: b24c 2b19 d963 3929 3ab7 ec55 72c9 2c9c
00000090: a1fa 4d8d c7b7 c226 fa9b a12a 50e3 2c96
000000a0: 29f7 9388 c9ae c137 e2cb dda3 e7ea 8b04
000000b0: 5a83 9eb4 a5ce e65b 259b de0a a1e1 1c81
000000c0: 38ed a152 cac7 10ea b8c8 4d27 17e3 6f95
000000d0: b730 bfec 09b5 476b e197 5c90 ab82 a974
000000e0: 6599 a118 746d 8666 485c e9f9 10e8 18ae
000000f0: 9d0a d0e7 addc 9cba 4586 d635 1472 445f
7 68 31 -4 6 48 -16 -69
121 11 -80 -8 20 9 -31 13
50 92 -99 -58 -22 27 2 7
87 77 -19 47 68 -49 127 124
-31 32 94 -94 124 72 45 -57
-84 28 22 -39 -14 37 -34 95
-70 -91 -91 -53 -22 0 -101 8
79 54 78 0 -21 73 61 46
73 86 -53 -92 88 -46 55 35
-76 -85 4 -104 19 -43 -15 65
20 93 4 109 110 -26 -51 115
68 53 23 -62 110 55 -86 83
21 -86 56 39 37 105 109 4
106 -66 7 -75 49 26 -26 14
-41 -75 16 115 49 110 54 -66
-36 -69 -46 24 87 123 -89 39
-78 76 43 25 -39 99 57 41
58 -73 -20 85 114 -55 44 -100
-95 -6 77 -115 -57 -73 -62 38
-6 -101 -95 42 80 -29 44 -106
41 -9 -109 -120 -55 -82 -63 55
-30 -53 -35 -93 -25 -22 -117 4
90 -125 -98 -76 -91 -50 -26 91
37 -101 -34 10 -95 -31 28 -127
56 -19 -95 82 -54 -57 16 -22
-72 -56 77 39 23 -29 111 -107
-73 48 -65 -20 9 -75 71 107
-31 -105 92 -112 -85 -126 -87 116
101 -103 -95 24 116 109 -122 102
72 92 -23 -7 16 -24 24 -82
-99 10 -48 -25 -83 -36 -100 -70
69 -122 -42 53 20 114 68 95

tfl.pseudo_qconst10 i1 [16] scale=0.0013507634 zero_point=127
00000000: 8050 4c68 427a 471f 1b4d f0d5 5e00 083d
-0.34444466 -0.063485876 -0.06888893 -0.031067558 -0.08239657 -0.0067538167 -0.07564275 -0.12967329
-0.13507634 -0.06753817 -0.19315916 -0.22962977 -0.044575192 -0.17154695 -0.16074084 -0.089150384

tfl.pseudo_qconst11 i1 [16] scale=0.0050735064 zero_point=-128
00000000: 797c 7d7a 797a 7c7a 7e7f 7a7d 7a79 7b7a
1.263303 1.2785236 1.2835971 1.2683766 1.263303 1.2683766 1.2785236 1.2683766
1.2886707 1.2937441 1.2683766 1.2835971 1.2683766 1.263303 1.2734501 1.2683766

tfl.pseudo_qconst13 i1 [16, 3, 3, 3]
00000000: 511c 591c 0347 4f7f f427 5437 e8f9 2a0f
00000010: 56ef d311 7562 fecd 17dc fae4 efe4 c2fe
00000020: cf19 7347 3aed 377f 3ca9 6a44 c0ed 089c
00000030: 47a1 0c6b d68e 8b27 19f3 46d1 e839 7f38
00000040: 98ab 0ae6 0671 b820 9f9f d27c 7253 6ecc
00000050: f99a fe79 a88b d5e6 f8fb 3c0c 3f52 7f89
00000060: a598 093c 7e7e 9504 2f48 a01e d70c 406f
00000070: 71a3 83fb cd61 49a9 6489 1f40 7fdf 82d7
00000080: 09b6 698a 3567 54c0 c126 8a38 e8e3 cf59
00000090: 4488 46b1 fea9 d5af 8f08 4cb0 7793 8881
000000a0: 933a 5c01 0115 f37c 1722 087f 0cc2 77ec
000000b0: 299a acc3 87db a43b 710e cbf3 74d8 eaaf
000000c0: e55f a5ae 2f68 16d1 43c1 7445 7f13 b81c
000000d0: ecfc 3162 33ec 32ee bb63 666f d157 e9d3
000000e0: eb16 81b8 5dea b22a fe93 354b 26d4 60f0
000000f0: 6cec 7c60 f523 1f87 6779 7159 9360 b4d2
81 28 89 28 3 71 79 127
-12 39 84 55 -24 -7 42 15
86 -17 -45 17 117 98 -2 -51
23 -36 -6 -28 -17 -28 -62 -2
-49 25 115 71 58 -19 55 127
60 -87 106 68 -64 -19 8 -100
71 -95 12 107 -42 -114 -117 39
25 -13 70 -47 -24 57 127 56
-104 -85 10 -26 6 113 -72 32
-97 -97 -46 124 114 83 110 -52
-7 -102 -2 121 -88 -117 -43 -26
-8 -5 60 12 63 82 127 -119
-91 -104 9 60 126 126 -107 4
47 72 -96 30 -41 12 64 111
113 -93 -125 -5 -51 97 73 -87
100 -119 31 64 127 -33 -126 -41
9 -74 105 -118 53 103 84 -64
-63 38 -118 56 -24 -29 -49 89
68 -120 70 -79 -2 -87 -43 -81
-113 8 76 -80 119 -109 -120 -127
-109 58 92 1 1 21 -13 124
23 34 8 127 12 -62 119 -20
41 -102 -84 -61 -121 -37 -92 59
113 14 -53 -13 116 -40 -22 -81
-27 95 -91 -82 47 104 22 -47
67 -63 116 69 127 19 -72 28
-20 -4 49 98 51 -20 50 -18
-69 99 102 111 -47 87 -23 -45
-21 22 -127 -72 93 -22 -78 42
-2 -109 53 75 38 -44 96 -16
108 -20 124 96 -11 35 31 -121
103 121 113 89 -109 96 -76 -46
