firmware/models/species_detection/mammal/mammal_classifier.tflite (tflite, 36232 bytes, 9 tensors)

tfl.pseudo_qconst1 i1 [7, 32]
00000000: 7b6f 081f b37f 372e 6af2 1ded 38b1 a037
00000010: 5645 8954 8526 e885 3200 f9ca 013c 1495
00000020: 1e73 161f fa46 e8d9 a0d1 a729 b074 dca4
00000030: f2d2 bf70 adea a531 38c6 2b16 6822 8104
00000040: 0a63 6c1c 345c 0745 bfe6 6fd3 92e5 312d
00000050: 9623 b7da 9b57 fb81 6cc5 6ee4 bf79 4802
00000060: b30b a4bd 3608 4804 e728 a997 9cd7 9231
00000070: dc4a 2265 8949 6976 749a 7781 6049 d4f8
00000080: d54a ba2c 78e6 bea8 7fc2 1b18 3aca e0aa
00000090: 5853 41fa fec3 b924 f2a6 8c94 94d5 ae79
000000a0: 5756 46fe fd02 b13b fc81 485f 03d1 f0f1
000000b0: e78c 02f6 9821 969a 5375 02e4 fd9c b525
000000c0: 51c7 344c b272 b612 28f8 d0ca a1ea 26f9
000000d0: f70d e59d c6c5 fcc8 7c5c 7fbb f5a5 1429
123 111 8 31 -77 127 55 46
106 -14 29 -19 56 -79 -96 55
86 69 -119 84 -123 38 -24 -123
50 0 -7 -54 1 60 20 -107
30 115 22 31 -6 70 -24 -39
-96 -47 -89 41 -80 116 -36 -92
-14 -46 -65 112 -83 -22 -91 49
56 -58 43 22 104 34 -127 4
10 99 108 28 52 92 7 69
-65 -26 111 -45 -110 -27 49 45
-106 35 -73 -38 -101 87 -5 -127
108 -59 110 -28 -65 121 72 2
-77 11 -92 -67 54 8 72 4
-25 40 -87 -105 -100 -41 -110 49
-36 74 34 101 -119 73 105 118
116 -102 119 -127 96 73 -44 -8
-43 74 -70 44 120 -26 -66 -88
127 -62 27 24 58 -54 -32 -86
88 83 65 -6 -2 -61 -71 36
-14 -90 -116 -108 -108 -43 -82 121
87 86 70 -2 -3 2 -79 59
-4 -127 72 95 3 -47 -16 -15
-25 -116 2 -10 -104 33 -106 -102
83 117 2 -28 -3 -100 -75 37
81 -57 52 76 -78 114 -74 18
40 -8 -48 -54 -95 -22 38 -7
-9 13 -27 -99 -58 -59 -4 -56
124 92 127 -69 -11 -91 20 41

tfl.pseudo_qconst3 i1 [32, 64]
00000000: e296 7c29 474b 3829 1e21 1537 101f 916a
00000010: 0506 33e1 a85f 7500 2e22 1817 3682 59a2
00000020: 8a9f 6bd1 6163 164d 3321 2bac 0e81 d5c4
00000030: 5856 e0be be15 8ceb b4d3 9a20 f9e6 8f50
00000040: cdf4 190e 8d70 6dda 8968 7a05 74f2 8f72
00000050: 129c 06ef f20b cbad 0c91 31c8 8110 b515
00000060: 372b dca1 c24b ed04 ee2e 4d08 dd01 fa4c
00000070: a181 1afe 532c bd32 99ce 4d2c 453b e3b2
00000080: ace2 be2d 1619 9ef2 cfc9 f7a0 6ce3 3bc1
00000090: 23c3 f2a7 b42b c4c8 7b3c d75c 9187 a515
000000a0: 1f04 f2aa 9f76 e453 2f37 ea16 3cc8 5a84
000000b0: 1fd0 e85d ff74 fd7b 8189 081f d400 b2d0
000000c0: f263 8620 847d da95 eca3 7856 6559 325e
000000d0: 2a0b ca59 8307 799b c14f 767f 8805 61f0
000000e0: ffcd 8125 adbd c20f 9eb9 0fbf 5012 f84b
000000f0: d67c 4c43 fed1 12c8 549d cca1 a762 b1f2
-30 -106 124 41 71 75 56 41
30 33 21 55 16 31 -111 106
5 6 51 -31 -88 95 117 0
46 34 24 23 54 -126 89 -94
-118 -97 107 -47 97 99 22 77
51 33 43 -84 14 -127 -43 -60
88 86 -32 -66 -66 21 -116 -21
-76 -45 -102 32 -7 -26 -113 80
-51 -12 25 14 -115 112 109 -38
-119 104 122 5 116 -14 -113 114
18 -100 6 -17 -14 11 -53 -83
12 -111 49 -56 -127 16 -75 21
55 43 -36 -95 -62 75 -19 4
-18 46 77 8 -35 1 -6 76
-95 -127 26 -2 83 44 -67 50
-103 -50 77 44 69 59 -29 -78
-84 -30 -66 45 22 25 -98 -14
-49 -55 -9 -96 108 -29 59 -63
35 -61 -14 -89 -76 43 -60 -56
123 60 -41 92 -111 -121 -91 21
31 4 -14 -86 -97 118 -28 83
47 55 -22 22 60 -56 90 -124
31 -48 -24 93 -1 116 -3 123
-127 -119 8 31 -44 0 -78 -48
-14 99 -122 32 -124 125 -38 -107
-20 -93 120 86 101 89 50 94
42 11 -54 89 -125 7 121 -101
-63 79 118 127 -120 5 97 -16
-1 -51 -127 37 -83 -67 -62 15
-98 -71 15 -65 80 18 -8 75
-42 124 76 67 -2 -47 18 -56
84 -99 -52 -95 -89 98 -79 -14

tfl.pseudo_qconst5 i1 [64, 3, 3, 32]
00000000: f6ca effd 49cd 4797 edbc 44be 2aa9 2205
00000010: 8b49 3c81 2af8 cd63 6454 dfa5 67dc 08c7
00000020: 5ff3 bb28 ee5a 4424 ff22 4f13 b52a a5dc
00000030: e192 3df3 2370 1356 7183 aaf3 560c 3fc0
00000040: b9b9 8467 d606 b52b 2d83 51b1 12e6 9726
00000050: 0275 ce69 83ab a966 eb4a f958 3ac9 bf44
00000060: f903 19fc e333 2b69 6e12 095c a852 56bf
00000070: 40d5 ba5b 6650 3d8f ffae b7e0 33dc 6b8d
00000080: defa beb4 d174 c588 c1ba 3868 34cc 6840
00000090: 0869 9ee0 36c1 02f1 08ef d5f2 a493 811e
000000a0: 59c8 9fec c900 8cc0 c4d6 8dda 11a9 a927
000000b0: a572 b203 1d1a dac4 2802 a461 cc25 2fad
000000c0: 79cd 3eba c999 35b7 a29a d3a0 1abf fbf3
000000d0: d094 232c 8888 e143 433c a670 6bcd 3b96
000000e0: a1e9 b3a4 4289 422f 6cc3 4bc3 1319 1ae3
000000f0: c3fb 3cbd 3650 299f 91f3 a3e2 8ded 36f6
-10 -54 -17 -3 73 -51 71 -105
-19 -68 68 -66 42 -87 34 5
-117 73 60 -127 42 -8 -51 99
100 84 -33 -91 103 -36 8 -57
95 -13 -69 40 -18 90 68 36
-1 34 79 19 -75 42 -91 -36
-31 -110 61 -13 35 112 19 86
113 -125 -86 -13 86 12 63 -64
-71 -71 -124 103 -42 6 -75 43
45 -125 81 -79 18 -26 -105 38
2 117 -50 105 -125 -85 -87 102
-21 74 -7 88 58 -55 -65 68
-7 3 25 -4 -29 51 43 105
110 18 9 92 -88 82 86 -65
64 -43 -70 91 102 80 61 -113
-1 -82 -73 -32 51 -36 107 -115
-34 -6 -66 -76 -47 116 -59 -120
-63 -70 56 104 52 -52 104 64
8 105 -98 -32 54 -63 2 -15
8 -17 -43 -14 -92 -109 -127 30
89 -56 -97 -20 -55 0 -116 -64
-60 -42 -115 -38 17 -87 -87 39
-91 114 -78 3 29 26 -38 -60
40 2 -92 97 -52 37 47 -83
121 -51 62 -70 -55 -103 53 -73
-94 -102 -45 -96 26 -65 -5 -13
-48 -108 35 44 -120 -120 -31 67
67 60 -90 112 107 -51 59 -106
-95 -23 -77 -92 66 -119 66 47
108 -61 75 -61 19 25 26 -29
-61 -5 60 -67 54 80 41 -97
-111 -13 -93 -30 -115 -19 54 -10

tfl.pseudo_qconst6 i1 [32] scale=0.0025033702 zero_point=125
00000000: 7799 d059 b99a 3de2 2372 5d36 b7dd 7fd2
00000010: 3c6f 4477 9875 716d 746e 806d 0b5c 7566
-0.0150202215 -0.5707684 -0.43308303 -0.09012133 -0.49066055 -0.568265 -0.16021569 -0.38802236
-0.22530332 -0.027537072 -0.080107845 -0.17773928 -0.49566728 -0.40053922 0.0050067403 -0.4280763
-0.16271906 -0.03504718 -0.1426921 -0.0150202215 -0.57327175 -0.020026961 -0.030040443 -0.040053923
-0.022530332 -0.037550554 -0.63335264 -0.040053923 -0.2853842 -0.08261122 -0.020026961 -0.057577513

tfl.pseudo_qconst7 i1 [32] scale=0.005005151 zero_point=-128
00000000: 7d5f 6075 5d57 7168 6a7c 786f 5f64 7f64
00000010: 717b 717d 587c 7c7b 7d7b 587a 6b77 7b7a
1.2663032 1.1161487 1.1211538 1.226262 1.1061383 1.0761075 1.2062414 1.161195
1.1712053 1.2612981 1.2412775 1.1962311 1.1161487 1.1411744 1.2763135 1.1411744
1.2062414 1.2562929 1.2062414 1.2663032 1.0811126 1.2612981 1.2612981 1.2562929
1.2663032 1.2562929 1.0811126 1.2512877 1.1762105 1.2362723 1.2562929 1.2512877

tfl.pseudo_qconst9 i1 [32, 3, 3, 16]
00000000: aed4 ebab ab72 e837 2ea4 848d aded a01b
00000010: 538f c1bb 25a4 43a6 eb03 b4c6 cc07 a643
00000020: a108 4f6d 1757 b186 3866 c11a 9a20 87da
00000030: 6d73 0ed6 d7a9 1b89 d8fd 55eb a95a 254d
00000040: 15cb c423 bdef 56e6 ea71 4b6b 723d cbd2
00000050: f666 992f 331f d7cd 1cb3 2c29 5bd6 ecb7
00000060: 1e14 2f19 5aee e9a4 b385 b696 f5aa 8b9f
00000070: a884 50cd d21e cd0a 24ad e8d2 86bb b681
00000080: ec6c 10fc 3e8b 49ab 9f4d 3a91 9a64 d6b1
00000090: 3619 d8ee dd00 b7a8 256f ca02 d365 2eee
000000a0: 0169 26fe 3303 31cb be2d 5178 7209 7ffd
000000b0: 2e1c 4143 3107 e8d4 eed8 ecdc bfcd fb0f
000000c0: ebc6 a908 5473 36ed b765 f8c0 a8f5 15d7
000000d0: 53d4 6bc2 44b7 cf34 eefd d747 4b09 f514
000000e0: 022e f92a 253a 5770 1abd 3d0a e417 df37
000000f0: 370f 5d4c fc45 56da b2d9 30b2 2894 7668
-82 -44 -21 -85 -85 114 -24 55
46 -92 -124 -115 -83 -19 -96 27
83 -113 -63 -69 37 -92 67 -90
-21 3 -76 -58 -52 7 -90 67
-95 8 79 109 23 87 -79 -122
56 102 -63 26 -102 32 -121 -38
109 115 14 -42 -41 -87 27 -119
-40 -3 85 -21 -87 90 37 77
21 -53 -60 35 -67 -17 86 -26
-22 113 75 107 114 61 -53 -46
-10 102 -103 47 51 31 -41 -51
28 -77 44 41 91 -42 -20 -73
30 20 47 25 90 -18 -23 -92
-77 -123 -74 -106 -11 -86 -117 -97
-88 -124 80 -51 -46 30 -51 10
36 -83 -24 -46 -122 -69 -74 -127
-20 108 16 -4 62 -117 73 -85
-97 77 58 -111 -102 100 -42 -79
54 25 -40 -18 -35 0 -73 -88
37 111 -54 2 -45 101 46 -18
1 105 38 -2 51 3 49 -53
-66 45 81 120 114 9 127 -3
46 28 65 67 49 7 -24 -44
-18 -40 -20 -36 -65 -51 -5 15
-21 -58 -87 8 84 115 54 -19
-73 101 -8 -64 -88 -11 21 -41
83 -44 107 -62 68 -73 -49 52
-18 -3 -41 71 75 9 -11 20
2 46 -7 42 37 58 87 112
26 -67 61 10 -28 23 -33 55
55 15 93 76 -4 69 86 -38
-78 -39 48 -78 40 -108 118 104

tfl.pseudo_qconst10 i1 [16] scale=0.0013236385 zero_point=120
00000000: 1d7f 1e74 7a1b 4773 7860 6ee6 4e69 8033
-0.1204511 0.009265469 -0.11912747 -0.005294554 0.002647277 -0.12309838 -0.06485829 -0.0066181924
0.0 -0.031767324 -0.013236385 -0.19325122 -0.055592816 -0.019854577 -0.32826233 -0.09133106

tfl.pseudo_qconst11 i1 [16] scale=0.0051429155 zero_point=-128
00000000: 7779 787f 7d7a 7a77 7878 7576 7878 7a79
1.2703001 1.280586 1.2754431 1.3114434 1.3011576 1.2857289 1.2857289 1.2703001
1.2754431 1.2754431 1.2600143 1.2651572 1.2754431 1.2754431 1.2857289 1.280586

tfl.pseudo_qconst13 i1 [16, 3, 3, 3]
00000000: f59b fffd 5f89 7b00 3a33 6016 467c c2ac
00000010: d130 7f89 fa96 1e2f b470 5c88 f63f a825
00000020: 1ce2 dc4e ea39 9ab5 0bab ee8f 0f04 9fb0
00000030: a69e 8564 7f24 4ad5 3fdd 4f62 6306 e54b
00000040: 5493 6f87 254a d92d 6c0b da7f f6b4 a6dc
00000050: a76c 1697 d32f baaa bc9a 691e c78f a478
00000060: 99c5 f5bc 6d3d f92a 509c c881 79c2 42cd
00000070: ea7d 9287 471c ea52 dc9d 5704 6b20 85fa
00000080: de81 938a ceb8 960d ab0b 05b7 be66 0628
00000090: 6c76 1ba8 7fed 9fed 73bb dcdb 7b21 ec1f
000000a0: 6916 e240 4f77 8200 4d7b 22c7 6546 3981
000000b0: 1785 f099 d1eb 56d2 4e76 bfff ca7f 60c8
000000c0: 2a58 b16b 1b0c af5b 2138 fc02 bacc a190
000000d0: 4e83 2d97 51ec cc97 4640 ef94 8174 8bcb
000000e0: 88fd 91e6 2b5a 0cf7 be48 2d65 b391 40d9
000000f0: 3e88 b30f 95c3 2257 b4ed 4ef7 db44 0ee8
-11 -101 -1 -3 95 -119 123 0
58 51 96 22 70 124 -62 -84
-47 48 127 -119 -6 -106 30 47
-76 112 92 -120 -10 63 -88 37
28 -30 -36 78 -22 57 -102 -75
11 -85 -18 -113 15 4 -97 -80
-90 -98 -123 100 127 36 74 -43
63 -35 79 98 99 6 -27 75
84 -109 111 -121 37 74 -39 45
108 11 -38 127 -10 -76 -90 -36
-89 108 22 -105 -45 47 -70 -86
-68 -102 105 30 -57 -113 -92 120
-103 -59 -11 -68 109 61 -7 42
80 -100 -56 -127 121 -62 66 -51
-22 125 -110 -121 71 28 -22 82
-36 -99 87 4 107 32 -123 -6
-34 -127 -109 -118 -50 -72 -106 13
-85 11 5 -73 -66 102 6 40
108 118 27 -88 127 -19 -97 -19
115 -69 -36 -37 123 33 -20 31
105 22 -30 64 79 119 -126 0
77 123 34 -57 101 70 57 -127
23 -123 -16 -103 -47 -21 86 -46
78 118 -65 -1 -54 127 96 -56
42 88 -79 107 27 12 -81 91
33 56 -4 2 -70 -52 -95 -112
78 -125 45 -105 81 -20 -52 -105
70 64 -17 -108 -127 116 -117 -53
-120 -3 -111 -26 43 90 12 -9
-66 72 45 101 -77 -111 64 -39
62 -120 -77 15 -107 -61 34 87
-76 -19 78 -9 -37 68 14 -24
